file/ae/embedder.pt (torch, 40483 bytes, 14 tensors)

rnn.weight_ih_l0 f4 [72, 6]
00000000: d641 64be 051e 1bbe 1389 39be 7d40 c3be
00000010: 3327 23be 4357 0ebd bdfc d3bc 23ac 65be
00000020: ea1d ddbf 69d5 93be 5532 0fbd 9059 1c3d
00000030: df6f c23d fcc2 843e 690e c5be ea83 583e
00000040: b1f8 573e 7c9f 233e 1efa 21bd 5674 e2bc
00000050: ddca 6ebf 4550 57be fe29 1b3e f54e 863e
00000060: 852a 82be 13b7 88be d4bd 66bf c66c ebbd
00000070: 7565 a9be e419 6abe 1e4e 983e 879b 343c
00000080: 3884 973f 3430 9bbe ee41 43bd 348c 4cbc
00000090: 84aa c6bc 73f3 dfbe 8ca7 94bf faf5 89be
000000a0: 8e5f 96bd 6d4c 3abe a6ea dabd d671 343d
000000b0: afa2 07bf 380b 45be b0ae 29be 4d5f f53d
000000c0: fbbd 14bc 9487 34be 5271 743f 6b29 5dbe
000000d0: 6f96 07be 69cc ecbd c5b0 c5bd 4946 b8bd
000000e0: c1b3 2bbf d29d 96be 7fc4 ea3d fc0a 183e
000000f0: 5ea3 b0be 6c9f 33bf 5df0 41bf 6650 8abe
00000100: 4682 f9bd 6fc2 11be bc1c 3ebe 3b2e b5be
00000110: 0157 403e a9fd dfbc e294 96be 2331 5cbe
00000120: 6ac7 03be 1e8f 4c3d 9ede b93f 7315 263e
00000130: a90d a73c 13f0 a63e 4be4 0e3d b384 b6be
00000140: 2d09 f4be a1fd e0bd 572f cdbd 4627 bdbd
00000150: 0e65 84be 214a 88be e0e5 8c3e cbea cbbe
00000160: 141a 0cbe be51 c4be 652a 123d 64c0 b13c
00000170: 4652 55bd 9e9f 7dbe 60d5 efbd b225 513e
00000180: 330d e03d de41 7fbd 859a 8f3c 5ad2 cf3d
00000190: f490 2bbe 07d4 29be 9a60 a63e cfc8 a03e
000001a0: edbf cfbe 34d8 a73e 95a7 733e 2c8c 0a3e
000001b0: d1d6 2a3f 0e0c a83e 014a afc0 7e4c 6c3e
000001c0: 54b5 273f 01f3 e23e 4753 593e d998 0b3e
000001d0: e8d0 1fbd e7e7 5e3e 6361 163e b16c b6ba
000001e0: 1d16 09be 55ef e0be f3a3 8fbe 3343 e3bc
000001f0: a860 4bbe c9ac b9be 1fe0 40bd 6ff9 f2bd
00000200: 5596 7bbe 1c25 c3be 3699 94be c54c 5abe
00000210: 0fb4 d73d 9e1e 393e 0aae 0c3f f55f 5f3e
00000220: daa6 363e 0b7a b53e 44f9 b4be e1d2 98be
00000230: aa9c b53f a72f 8abe 1f9f 71bd 5288 eabc
00000240: d7a3 67be 1b2a a6bd 0617 87bf 4e92 263c
00000250: 1051 95be eec0 0a3d 45bf 2d3e a870 063f
00000260: 6c72 a5c0 e80e be3e 99ef a83e 3699 abbd
00000270: ecd3 30bd bbd3 d23d 1c8b a43f c076 323e
00000280: 7941 0ebb c9c1 b1be 6586 01bf 8ab9 41bf
00000290: 06e1 e63f 2e0c 81bf 3138 a1bf 265b 80be
000002a0: 83fb 7abe e2c4 13bf c269 15c0 b273 cdbe
000002b0: 7549 45be 1d66 5e3f bdd6 313d aae3 323e
000002c0: 95d1 ccbf ff86 4a3e 7707 eb3d 510e 1ebd
000002d0: bce6 0dbe bf71 3fbe d179 44c0 5b37 4abe
000002e0: b50e 64be b178 b1be c5bd 5dbe d3fc 19bf
000002f0: 5902 5dbe fa26 29bf 9809 ecbe c42b 823e
00000300: 25b8 7f3e b393 ad3e 354c 46c0 e8ea 243e
00000310: ef02 0d3e 767d 1e3e 4f27 d0bd c937 043e
00000320: 8e8f b5bf 5d7a 3b3d 126f 213b 47e2 31be
00000330: 6f38 b8be 7020 263e 22f0 8940 ee1f 00bf
00000340: 3484 36bf b651 81bf e1f5 1ebe fd03 12be
00000350: 9c59 26bf 6b23 c3bd 65cd 01bd a641 11be
00000360: ef1e 97bd 00be 6e3e 694d da40 69c1 4a3d
00000370: 664f b0bb 3832 1cbf 51fd 303d c5f4 303f
00000380: 2a97 39c0 f3d3 a93e 9502 d93d 9e78 40be
00000390: 6a04 40bf 1604 6dbe 6ab2 01c0 1bb3 33bf
000003a0: 17f2 9cbf 76fc a3bf 7b05 a5be 0575 d6be
000003b0: 6e0b d9be e25c 80be 4744 21bf 17bc 813d
000003c0: bf25 49be 8435 50be 6b1d 103d 0e8b 73be
000003d0: f24e 07bf 980b 46be 06ad 25be 0c28 9a3e
000003e0: d2fa a83f 2d81 16bd 3c90 95be 22d4 39bf
000003f0: 036b 33bf 831e 34bf fb8d 8340 cfcc a4bf
-0.2229074 -0.1514817 -0.18118696 -0.38135138 -0.15932922 -0.034751188 -0.025877351 -0.22428946
-1.7274754 -0.28873757 -0.03496011 0.03817135 0.09493994 0.2593001 -0.38487557 0.21144071
0.21090962 0.15978807 -0.03954517 -0.027643364 -0.93278295 -0.21026714 0.15152737 0.26232114
-0.25423065 -0.26702175 -0.90133405 -0.11495356 -0.33085218 -0.22861439 0.297471 0.011023409
1.1837225 -0.30310214 -0.047670297 -0.012484599 -0.02425123 -0.43740425 -1.1613631 -0.26945478
-0.07342444 -0.18193217 -0.10689287 0.044053875 -0.5298261 -0.19242561 -0.16570544 0.11981068
-0.009078498 -0.17629844 0.95485413 -0.21597831 -0.1324098 -0.11562426 -0.09652857 -0.08997781
-0.6707116 -0.29417282 0.1146326 0.1484794 -0.3449964 -0.70165133 -0.7575739 -0.27014464
-0.12183051 -0.14234327 -0.18565649 -0.35386834 0.1878319 -0.027342634 -0.29410464 -0.21503119
-0.12869039 0.049941175 1.4521062 0.1621912 0.020392256 0.32605037 0.034885686 -0.35648116
-0.4766325 -0.10985876 -0.10018795 -0.092360064 -0.2585835 -0.26619056 0.2751913 -0.3982757
-0.13681823 -0.38343614 0.03568496 0.021698184 -0.052080415 -0.2476792 -0.1171062 0.20424536
0.109400176 -0.062318675 0.017529735 0.10147543 -0.16754514 -0.16584788 0.32495576 0.31403205
-0.40576115 0.32782137 0.23794396 0.13530034 0.66734034 0.32821697 -5.4777837 0.23076054
0.6551106 0.44326022 0.21223174 0.13632526 -0.039017588 0.21768151 0.14685588 -0.0013917891
-0.13387342 -0.43932596 -0.2805477 -0.027742004 -0.1986109 -0.36264637 -0.04708874 -0.11863982
-0.24569066 -0.3811425 -0.2902314 -0.21318348 0.1053239 0.18078086 0.5495306 0.21813948
0.17837086 0.35444674 -0.35346425 -0.29848388 1.4188435 -0.2698948 -0.05898964 -0.028629456
-0.22621094 -0.081135 -1.0553901 0.010166718 -0.29163408 0.0338754 0.16967495 0.5251565
-5.1702175 0.37120748 0.32995299 -0.08378832 -0.043170854 0.10294291 1.2854953 0.17428112
-0.0021706505 -0.3471816 -0.50595695 -0.75673735 1.8037422 -1.0081842 -1.2595273 -0.2506954
-0.24510007 -0.57722294 -2.33458 -0.4012733 -0.19266303 0.8687456 0.04341768 0.1746966
-1.6001459 0.1977806 0.11476033 -0.038587872 -0.1385755 -0.18695734 -3.069935 -0.19747679
-0.22271235 -0.34662393 -0.21654423 -0.60151404 -0.21582927 -0.660751 -0.4610107 0.25424016
0.2497259 0.33901748 -3.0984013 0.16105235 0.1377065 0.15477547 -0.101637475 0.12911905
-1.4184434 0.04577099 0.0024632853 -0.17371474 -0.35980555 0.16223311 4.310563 -0.5004872
-0.71295476 -1.0103061 -0.15523483 -0.14259334 -0.64980483 -0.0952824 -0.03169002 -0.14185199
-0.07378947 0.23314667 6.8219495 0.049500857 -0.005380559 -0.6101413 0.04321033 0.6912349
-2.8998513 0.33169517 0.105961956 -0.18796012 -0.75006735 -0.2314609 -2.0265145 -0.7019517
-1.226138 -1.281142 -0.32230744 -0.41886154 -0.42391533 -0.25070864 -0.6299481 0.063347034
-0.19643305 -0.20332915 0.035184305 -0.23783514 -0.52854836 -0.1934036 -0.16179284 0.30108678
1.3201544 -0.036744285 -0.29211605 -0.72589314 -0.7008516 -0.7035906 4.1110816 -1.2875003

rnn.weight_hh_l0 f4 [72, 24]
00000000: 31e3 e33d d8be 99bc 1a6e 953d cef2 543e
00000010: 0892 983d 9444 e2bd 63d9 4cbe ff54 07bd
00000020: b2ea 98bd 4807 9bbd ec05 1a3e 60db 203d
00000030: 975d 863e 6038 253c 630d 9bbd 273c 093e
00000040: 459f 983d 1dbb 043e e841 83bd 06ce d53d
00000050: a69d 143e 3669 86bc 947b 203e 2677 31bd
00000060: 92e0 d2bd dd10 863e 378b 033e 4363 b43e
00000070: bcfb 36be 97be e7bd 15b2 00be a0d2 38be
00000080: fd0d cd3d fa55 be3c d1bd 5e3e 9bc2 a6bd
00000090: f171 c93e cadb 16be b3ac 4e3c 1d39 2cbd
000000a0: c1f1 0fbd 06f6 0ebd b2d7 7c3e 7e3f 03be
000000b0: 42ff 843c 2435 cabd e457 4a3e 4e35 563e
000000c0: 56e5 073e ac44 2cbc 01a6 833e 2341 e43d
000000d0: dfc3 6b3e 466e 75bc 9e06 8d3d c709 47be
000000e0: 4d15 983e ee8d 7ebd fe63 e23d e23d b4bd
000000f0: 6435 8a3d 320c 203e 583e 343e be25 1a3e
00000100: c123 8dbe 95e7 9f3b 91f0 163d fbe8 d73d
00000110: 48f4 f83d 633c 4dbe 5853 24bd 703f 6ebe
00000120: c6d3 303e 8078 bd3e 67ff 5b3e 8c5f 28be
00000130: 873c 26bd e491 51be 4be2 50be 3806 33be
00000140: 2d13 a6bd 638a 783d 3400 6cbe 56fb b3bd
00000150: 4755 183f f4bc ba3d c655 48be fd73 893e
00000160: 6201 6cbd 2254 83be 1363 1dbe 5273 a7bd
00000170: 0b61 5d3e 27c1 ce3d f716 e9bd 9edb 60be
00000180: 6b0a 50bc 3b09 843d f4cb 793e 068b a43d
00000190: 73c6 f13d 1ea3 6cbd 4657 133e 2cb6 61be
000001a0: cfc2 8cbd 2ccf 48be 6563 3dbe 9864 d23d
000001b0: 9c6c d63c fca4 c1bd bc00 18be 03b9 063e
000001c0: 7f64 11bc ea9d 13bd c392 913d b5f4 e7bc
000001d0: 254a b6bd 8158 09be 6422 1b3d 97ff f2bc
000001e0: aa55 b53d 5516 913e 5969 e9bd 4055 223e
000001f0: e602 99bc 30c8 203e 69e2 c2be b266 9bbe
00000200: 0c36 433e ed2a acbe ad43 de3c da69 8abd
00000210: 3576 e53d 9957 af3e a252 8e3e a356 c939
00000220: 47df 443b d5de 4d3d 6e5d f33d ca76 8d3d
00000230: 4b41 7d3d fde0 5ebe 1995 e43e b83f 803e
00000240: 08e5 8e3e 7b57 173d dd53 07be e9fb a1bd
00000250: 352c d83c 404e 82be 18e2 b13d 8c90 4ebe
00000260: 2fcc 64bd 4171 80bd 4241 303c 666e 0e3c
00000270: efc7 563e de7d 87be d3a4 7a3d 6124 a93e
00000280: c120 4fbe aeaf 863e 90bc 4bbe 9c70 e23d
00000290: 61ef ef3c 2ecb 46bd 40e2 ff3d 3929 913e
000002a0: e0e0 cfbd 176e 623e 307d 753e 850f 533d
000002b0: e57c 143e ed97 bebe 9be4 a9be 210e 35be
000002c0: 2a36 d53d b716 4ebd 919d bfbc a778 ed3b
000002d0: 7a9a 813e 1ead 82be ca23 29be 8d6c d63d
000002e0: 3726 c33d 3d94 3cbe 6a1a 1bbd ea0a fbbd
000002f0: fced 3e3e 87ff a93d 478d bdbc cf37 293d
00000300: 9dcf 8b3e 27f7 023b 56ac ca3e 620f 34be
00000310: 51a2 a23e 61cd 2cbe c3bd b23d b1e0 efbe
00000320: 6948 813e d0f6 a9be 661c ffbd 1ed5 d1bd
00000330: d236 6d3e bfd1 1a3d d1f1 223e 59e5 0a3f
00000340: c9e0 cdbd 3287 fc3d 1857 02be 5d8b 783e
00000350: 8566 113e 9b4a f5be d74c 6e3e 2b9c f3bd
00000360: 9f09 c33d 4342 e63d 5f83 90bd c295 923d
00000370: 533f c2bd 2fdb e13d a6d9 9d3a a883 383e
00000380: dd39 943d 9c29 2bbd b5b3 213d a734 9cbd
00000390: 009a 86bd f262 b9bd 9929 da3d 4e15 963d
000003a0: 4a6d cebd eec5 2fbe c26a 3fbd c9fe 9d3c
000003b0: 4ebe 09bd 8b69 053e e521 2f3e 8251 89be
000003c0: f8ad 23be 0936 683d f8d8 d8bd b51f 213e
000003d0: 5890 f93d 0f34 20bc 9f51 85bd 25da 05bd
000003e0: 48b0 abbb 6999 3a3e 5cd7 0dbe 0f4f aa3c
000003f0: 78a3 333f 4f80 b1bd 162b 2f3d f921 5b3e
0.11127318 -0.01876776 0.07296391 0.20795748 0.07449728 -0.110482365 -0.20004801 -0.033040043
-0.074666396 -0.07569748 0.15041322 0.039271712 0.26243278 0.010084242 -0.07570913 0.13401853
0.07452253 0.12962003 -0.06409055 0.104396865 0.14513263 -0.01640759 0.15672141 -0.04332652
-0.1029674 0.2618474 0.12846075 0.3523198 -0.17869467 -0.11315649 -0.12567933 -0.18049097
0.10012434 0.023234356 0.21752097 -0.08142587 0.39344743 -0.1473228 0.012614417 -0.042046655
-0.035142664 -0.034902595 0.24691656 -0.12817189 0.016234998 -0.09873417 0.1976009 0.20918772
0.13271078 -0.0105144195 0.25712588 0.11145236 0.23023938 -0.0149799045 0.06886028 -0.19437324
0.2970375 -0.062147073 0.11054228 -0.08800866 0.06748465 0.15629652 0.17601907 0.1505346
-0.2756634 0.0048799017 0.036850516 0.105424844 0.12155968 -0.20042567 -0.040118545 -0.23266387
0.17268285 0.37005997 0.21484147 -0.16442698 -0.040585067 -0.20465809 -0.20398824 -0.17482841
-0.08109126 0.06067885 -0.23046952 -0.08788173 0.5950512 0.09118071 -0.1956397 0.26846305
-0.057618506 -0.25650126 -0.15369825 -0.081762925 0.2161905 0.10095435 -0.11381333 -0.21958777
-0.012697796 0.06447073 0.24394208 0.08034329 0.11805429 -0.05777275 0.14388761 -0.2204215
-0.06873094 -0.1961028 -0.18494947 0.10273093 0.026174836 -0.094552964 -0.1484403 0.13156514
-0.008874058 -0.03603927 0.07108071 -0.028314928 -0.08900861 -0.13412668 0.037874594 -0.02966289
0.0885423 0.2833735 -0.113970466 0.15852833 -0.01867814 0.15701365 -0.38063362 -0.30351788
0.19063586 -0.336265 0.02713188 -0.06758471 0.11204187 0.3424652 0.2779742 0.00038402257
0.003004031 0.050261337 0.11883055 0.06907423 0.061829846 -0.21765514 0.44645002 0.25048614
0.27909112 0.036948662 -0.13215585 -0.07909376 0.026388267 -0.25450325 0.08685702 -0.20172328
-0.055858787 -0.062716015 0.010757746 0.008693313 0.20974706 -0.26463217 0.061192345 0.33035567
-0.20227338 0.26305908 -0.1989615 0.11056635 0.02928895 -0.04853361 0.12494326 0.28351763
-0.101503134 0.22112308 0.23973536 0.051528472 0.14500768 -0.37225285 -0.33182225 -0.17681171
0.104107216 -0.05031463 -0.023390563 0.007247049 0.2531317 -0.25522703 -0.16517559 0.10469923
0.09528773 -0.18415923 -0.037866987 -0.12257941 0.18645471 0.08300691 -0.023138655 0.04131299
0.27306834 0.001998374 0.39584607 -0.17583993 0.31764463 -0.16875221 0.087276004 -0.46851113
0.25250557 -0.33196115 -0.124565884 -0.10245727 0.23165444 0.037797686 0.15912558 0.54256207
-0.1005264 0.12330474 -0.12728536 0.24271913 0.14199264 -0.47908482 0.232715 -0.11895021
0.095233195 0.11243107 -0.07056307 0.0715747 -0.094847344 0.11028134 0.0012043014 0.18018973
0.07237599 -0.04178773 0.039478023 -0.0762723 -0.06572342 -0.090520754 0.106524654 0.07328282
-0.10079439 -0.17165348 -0.04673267 0.01928653 -0.033628754 0.13028543 0.17102773 -0.26819998
-0.15984333 0.056692157 -0.105882585 0.15734752 0.121857345 -0.009778037 -0.065097086 -0.032678742
-0.00523952 0.18222584 -0.13851684 0.020789651 0.7017131 -0.08667051 0.0427657 0.21399678

rnn.bias_ih_l0 f4 [72]
00000000: 90dc c5bd 6adf abbc fc4e 2dbe 3ba0 693e
00000010: f366 fe3d cd2d 21bc 905f 053e 3f0f 263e
00000020: c22c 3bbe f425 893e f587 bcbd cc20 e13c
00000030: 5b3a aabd 4379 eabd 0c06 50be 9e89 803e
00000040: 4991 313e 751f d23d 91c5 b13d 46b8 7cbe
00000050: 3192 913c 5830 753d f2f8 9a3e 208a 703d
00000060: 8557 6b3e 00a1 84bf 0340 3ebf a007 91bf
00000070: 4f40 2abe 8047 63bf 0b7f aa3e 70c5 0bbf
00000080: a564 763e 4188 9abd 7050 3dbf f435 0fbd
00000090: 9d5e 3bbf 3c4e dd3e e455 1bbf 9745 8bbe
000000a0: b06a 9bbe b137 8fbf c021 88bf a08a 06bf
000000b0: 11f6 4c3d 3540 a13e d7b0 6bbe 6cde d5bf
000000c0: a576 81be ad2f 9bbd 7587 f53d fc4c ecbd
000000d0: 04d2 2dbe 267d d3bd 34c1 313e 1b37 303e
000000e0: eac5 97be 4861 c63d baee 123e 049f 833e
000000f0: 7a32 573d 6c36 89be a643 81be 4e02 e9bd
00000100: 139e a43e 4509 833e 24f3 473e d4f1 a9be
00000110: 308d 1ebe 9f6e 1e3e f0ab bbbe 7b05 273c
-0.096612096 -0.020980556 -0.16924661 0.2281503 0.1242198 -0.00983758 0.13024735 0.16216753
-0.18278793 0.26786768 -0.09205619 0.02748146 -0.08311912 -0.1144891 -0.20314807 0.25104994
0.17340578 0.10259906 0.08680261 -0.2467967 0.017769905 0.059860557 0.30268055 0.058725476
0.22982605 -1.0361633 -0.74316424 -1.1330452 -0.16626094 -0.88780975 0.3330005 -0.5459814
0.2406183 -0.075455196 -0.7395086 -0.034963563 -0.73191243 0.4322375 -0.60677934 -0.2720153
-0.30354834 -1.1188871 -1.06353 -0.52555275 0.050039355 0.314943 -0.23016678 -1.6708503
-0.2528583 -0.07577453 0.11988727 -0.11538121 -0.16974646 -0.103266045 0.17358857 0.17208521
-0.29643184 0.09686524 0.1434888 0.25707257 0.052538373 -0.26799333 -0.25246924 -0.11377393
0.3215185 0.2559301 0.19526345 -0.33192313 -0.15483546 0.15471886 -0.36654615 0.010194178

rnn.bias_hh_l0 f4 [72]
00000000: 5980 513e 6e69 9c3e df97 2dbe 87c9 61bc
00000010: ad0e 973b 34d2 2b3e e56b a63d 7320 9f3c
00000020: 9650 f9be 4147 1f3d d955 16bd 68ce 753e
00000030: 7612 f93d 315e 343e b073 6fb9 c20c 553e
00000040: 0b6b 24be d55a 32be d0ca b63e 6f0c 1fbe
00000050: f9fc 403e c03a c83d 07b3 fd3d 0d99 5f3e
00000060: 584b 833e 4dc8 69bf 24c2 1abf dd25 78bf
00000070: b5b2 a3be d8d1 1abf 7b97 dc3e 455f 8dbe
00000080: 468a 323e fc6b 0fbe bd1c 3cbf 9a34 963e
00000090: 572e edbe 05ff d93e cda5 47bf a72d e1be
000000a0: da74 bcbe f089 6dbf cff4 49bf 8dbd 0abf
000000b0: a4dd ec3c 5493 973d ba48 63be cf2d c4bf
000000c0: ebe3 76be 73e2 6bbe 1854 1fbe a87e 433e
000000d0: 8438 10be baaf 15bd 821b fc3d e025 f93d
000000e0: f7f1 343d afe6 7c3e d48e cebd 0f86 483e
000000f0: aafe cfbc c0db a5bd f63d 67be 0432 9cbe
00000100: c2c7 e2bc e7f2 43be e094 fe3d af14 8bbd
00000110: fd19 f6bd 44c6 9d3e 79e9 a7be 2f98 be3e
0.20459117 0.30549186 -0.16952465 -0.013780958 0.004609904 0.16779405 0.08126048 0.019424653
-0.48694295 0.038886312 -0.036702964 0.24004519 0.12161724 0.17614056 -0.00022835913 0.20805648
-0.16056459 -0.17417462 0.3570161 -0.15532087 0.18846501 0.09776831 0.123876624 0.21835728
0.2564342 -0.9132126 -0.60452485 -0.96932775 -0.3197228 -0.60476446 0.4308432 -0.27611747
0.1743556 -0.14006037 -0.7348135 0.29337007 -0.46324417 0.42577377 -0.77987367 -0.43980142
-0.368079 -0.927886 -0.78889173 -0.5419548 0.02891428 0.074011475 -0.22195712 -1.532648
-0.24110381 -0.23035602 -0.15559423 0.19091284 -0.14084059 -0.03654454 0.12309934 0.12165427
0.04417607 0.24697374 -0.10085836 0.1958239 -0.025389988 -0.080985546 -0.2258223 -0.3050691
-0.027683143 -0.19135629 0.124307394 -0.067910545 -0.120166756 0.30815327 -0.32795313 0.37225482

rnn.weight_ih_l1 f4 [72, 24]
00000000: 4a1b 7c3e 9f45 d23e a7d3 873d 55f3 30be
00000010: b22e 303e 0a90 80be e8bc 6c3c 0cd6 7dbe
00000020: 205c 7d3e 9675 c1bd 4796 60be c84f 88be
00000030: 8682 35be 2025 5e3e 403d b13d 0725 fb3c
00000040: 51d8 9ebc 6dba 5e3e 5ba6 ad3d 290f 98bc
00000050: 8787 7b3e d25c 35be aab5 93bd 4840 25be
00000060: 3e45 34be 401f 89be f811 333f 5e34 e5be
00000070: 234b d73e 242c 0cbf 4183 bf3e 1bab cebe
00000080: 3423 cf3d 85e5 893d 7e65 16be cd5a c9bd
00000090: 1ec5 1c3f eeb8 8cbe ba11 0cbd 7961 803c
000000a0: ff5d b5be 8f28 8b3f 2cde 413f 1e1c 0b3d
000000b0: 4a4d 5c3e d107 213d 3ec5 89be 9292 783e
000000c0: 97ad 40be 51d2 58bc 4926 003f 438d bdbe
000000d0: 5db8 653e 0176 cbbd f7ca fa3e 473b 003d
000000e0: e38f 41be b1a9 4c3e 96ed 92be ccf8 393e
000000f0: 711d 9ebf 22ea c1be 21f9 903d e2cf 61bd
00000100: ee7f 51bc cf72 c43e 4a92 ebbd 3120 a6bc
00000110: 5271 8c3e ef1e 823d c20d dabe 034a c7be
00000120: 9082 8cbf 3d4a 9bbf 2b21 edbe bbeb 723e
00000130: 421d 17c0 cdfe fcba 92c3 2a3f c3c6 583f
00000140: 7be7 c5be 9cff 293e e71c 773e 0cff 8d3f
00000150: 4e3b aebe 8ba9 03bf dfa6 7cbd e502 33be
00000160: 23bd 7b3e c8f3 8ebe b13f 433f 55fe 5ebf
00000170: f01c d3bf 9713 8f3f b1cb e2bf 6ef7 e43f
00000180: 8824 ba3d 87ef d73d 2382 38be 9912 4a3e
00000190: f034 be39 6179 bdbb 24f3 78bd 60e4 20be
000001a0: 9244 d03e c075 5cbe 07c2 bd3e d9da 1bbe
000001b0: 7196 a53d 2395 913e 1053 ea3d 17d4 60bd
000001c0: a2ef 173d 2c21 dcbe 5c84 fdbd a77c 5fbc
000001d0: c331 39bd b6f3 23be 3ad6 fb3c 4c9d b5be
000001e0: c25d 003e 02f9 7d3e 7871 dfbd 3f6c 6d3e
000001f0: 9dfd 883e b716 65be 7e99 9f3c fb11 d03d
00000200: 2a60 ea3e 7e9b b6be ac46 1d3f 2636 91be
00000210: 74ed 16be bf33 b53d fbad af3b 0f80 b2bd
00000220: 916a 03be 19c4 37be 77fd 4e3d a3ee 5a3d
00000230: 700c 833e e3e7 66be 248b 90bb 1fa7 21be
00000240: eaab 2b3e 401d 6bbc 2ec3 cf3d 8b64 3abe
00000250: 781f c43e aa21 a6bd 99fb 633d 1fd7 04be
00000260: bcd7 03be 4715 803e 9be0 cd3d 17c8 863d
00000270: 7d11 82be b59f b1be d955 10be b5a8 12bd
00000280: ca68 3bbe aae5 8b3e 84b0 84be e9c3 1a3e
00000290: 456b 7d3e 9d89 cfbd 056f bfbe 55f6 023f
000002a0: 9ed2 d5bc af50 b5bd 967e 8dbe 95fd c53e
000002b0: 95e4 72be e49d 603d 227e 4c3e 3263 423e
000002c0: 8636 2ebe 2eb2 76be 291d 973d a77c a3be
000002d0: 3270 1a3f dd7c 84bd 8ff1 1f3e 903f 0bbd
000002e0: a217 d7bd a3fd e3be 4b82 e6bd 2bda cfbd
000002f0: 1390 353e 9776 783d 005d 0e3e 8bb8 89be
00000300: af24 f8bd 4149 9e3e b043 d23e 1cea b33c
00000310: eea8 073f 3793 cebe 01b5 d6be b2ca a3be
00000320: f810 f43e 92ac 61bd 33c4 34be dd2c 513e
00000330: 0f8e a1bf 5baa 11be 3d0d 523d e33f 2bbe
00000340: e833 b93d 5a0f 6d3f ceee ca3e 77c4 10be
00000350: c929 e63c d0da 6bbd d622 04bf 2f3c d33f
00000360: 61e6 8ebe e0ee b7be 3af9 873e 49b7 49be
00000370: 5259 16be a961 65be 60df be3e ecf3 c43d
00000380: 186e e0bd 266f e93e 8a27 88bd 0daa d33e
00000390: 1212 613c 441f c9be e040 a5be 97ae 2cbe
000003a0: e82a 063e c7d8 793e 3031 303e 192a 1a3d
000003b0: c9fb b0bd a992 8c3e fa60 5ebe 8d60 803e
000003c0: 1a36 88be 9bec babc 5c6d ec3d 4911 9ebd
000003d0: f87e 32be edf6 14be 80dc d93e 43cc eebd
000003e0: 7f16 123d db92 813e 7ae5 fb3d b816 f73b
000003f0: 68c6 e6be 3d4e 123d cc06 9ebd b00c d03d
0.24619785 0.41068742 0.06632166 -0.17280324 0.17205313 -0.25109893 0.014449336 -0.24788684
0.24742174 -0.09446256 -0.21932326 -0.26623368 -0.17725572 0.2169385 0.08654261 0.030657304
-0.019390257 0.21750803 0.084789954 -0.018561916 0.24563418 -0.1771119 -0.07212384 -0.16137803
-0.17604539 -0.26781654 0.69949293 -0.44766515 0.42049512 -0.54754853 0.37404826 -0.40364918
0.10114136 0.067332305 -0.14687154 -0.09831772 0.61238277 -0.2748484 -0.034196593 0.015671479
-0.35423276 1.0871753 0.7572963 0.03396236 0.21513858 0.039314095 -0.26908296 0.24274662
-0.1881622 -0.013233737 0.5005842 -0.37021837 0.2243361 -0.09934617 0.48982975 0.03130653
-0.18902545 0.19986607 -0.2869689 0.18161315 -1.2352735 -0.37873942 0.070787676 -0.055129893
-0.0127868485 0.38368842 -0.11502512 -0.020279022 0.27430207 0.06353556 -0.4258862 -0.38923654
-1.0977345 -1.2132031 -0.46314368 0.23722737 -2.3611608 -0.0019302011 0.66704667 0.84678286
-0.38653168 0.16601413 0.24132119 1.1093459 -0.3402962 -0.5143058 -0.06168258 -0.17481573
0.24583869 -0.27920365 0.7626906 -0.8710683 -1.6493206 1.1177853 -1.7718412 1.788801
0.09088999 0.10543733 -0.18018393 0.19733657 0.00036279066 -0.0057822918 -0.060778752 -0.15712118
0.40677315 -0.21529293 0.37062094 -0.15220203 0.08085335 0.28434095 0.11441624 -0.054889765
0.037093766 -0.42994058 -0.12378761 -0.013640559 -0.045213472 -0.16010937 0.0307418 -0.3547157
0.12535766 0.2480202 -0.10910314 0.23185824 0.26755992 -0.22371946 0.01948237 0.101596795
0.45776492 -0.35665506 0.6143596 -0.28361624 -0.14739019 0.088477604 0.0053613163 -0.087158315
-0.1283362 -0.17945899 0.05053469 0.053450238 0.25595427 -0.22549395 -0.004411118 -0.15786408
0.16764799 -0.014350235 0.101446494 -0.18202417 0.3830526 -0.0811189 0.055659864 -0.12972687
-0.12875265 0.25016233 0.10052606 0.06581133 -0.25403967 -0.3469216 -0.14095248 -0.035805423
-0.18301693 0.27323657 -0.2591592 0.15113796 0.24747951 -0.101336695 -0.3738939 0.5115712
-0.026101407 -0.0885328 -0.2763564 0.3867003 -0.2372001 0.054838076 0.19969991 0.18983153
-0.17012987 -0.24091408 0.07378609 -0.3193104 0.60327446 -0.06469128 0.15619491 -0.033996165
-0.105025545 -0.44529447 -0.1125532 -0.10149034 0.17730741 0.06065997 0.13902664 -0.26898608
-0.12116372 0.30915263 0.41067266 0.021962218 0.5299214 -0.4034669 -0.4193497 -0.31990582
0.47669196 -0.055096216 -0.17652969 0.2042727 -1.2621478 -0.14225142 0.051282156 -0.1672359
0.090431035 0.9260155 0.3963532 -0.14137445 0.028096097 -0.057581723 -0.51615655 1.6502742
-0.2791014 -0.35924435 0.26557332 -0.19698824 -0.1468251 -0.22400536 0.37279797 0.09616837
-0.10958499 0.45592612 -0.066481665 0.41340676 0.013737218 -0.39281666 -0.32276058 -0.16863476
0.13102305 0.243991 0.17206264 0.037637804 -0.08641774 0.27455643 -0.21716681 0.25073662
-0.26603776 -0.0228179 0.11544296 -0.07718141 -0.17431247 -0.1454732 0.4255104 -0.116600536
0.035665985 0.25307354 0.122996286 0.00754055 -0.45073247 0.035719145 -0.0771614 0.1015867

rnn.weight_hh_l1 f4 [72, 24]
00000000: 7045 933d e216 c13d e70e b93e 4a2d 143e
00000010: 425e 52be 5a6d b93e c99d 4f3e fc1f 383d
00000020: f362 883e 82f9 93be 8cb5 803e ca4a e4be
00000030: 1d3c 9b3d 7a5a 2b3d 59b5 f63c 0bd7 abbe
00000040: e88b 223e ff25 5c3e b95f b9bc d8d8 063e
00000050: f776 8abd f637 9fbe 5e68 713d 28be dabe
00000060: ef75 383e 08d4 97be 3c0d f8bd ac3f b6bd
00000070: ddda 22be f0a3 833d 0444 bc3e 7888 5a3d
00000080: ebdc e1be 7794 bfbe f07c d7bd 887e 993e
00000090: 85a4 143e 8886 6fbc 5f8a 9f3d 88c1 1d3e
000000a0: 664c a73d bff3 6d3e f066 c13e ab6a fe3e
000000b0: 7dbc 963e 3133 c0be c645 4cbe f49a 7fbe
000000c0: 0b70 a03e 86da d33e d765 803e 9bfa 2f3c
000000d0: 129f 7bbe 998f c73e eb21 893e dd14 2cbd
000000e0: 331f 573b 7821 0bbe 9681 1dbc b5b8 0f3e
000000f0: 33bc 2bbc 52ae 823e 3831 8a3e 00d5 10bf
00000100: c904 083f 39d0 c63d 044d 8f3e 7548 e43e
00000110: 2b80 273d 1d27 9ebe 2067 0abe e319 97be
00000120: 8b1f 523d e59f 11bc 08ce 8fbe 32ca 043e
00000130: b7ee 143e dd1e 7abc 14e1 303e d1af d9be
00000140: 8d99 af3d f5c6 5f3e e095 33be 0553 a9bc
00000150: d91a f13d 7885 e83d 0591 093e 292d e2bd
00000160: 8e57 73be 6f93 61bd 35b3 a3be 802a 5ebe
00000170: 6d0a d0be edb8 9cbd c4bf 583d 1168 a13d
00000180: 2760 413e 5989 0f3e bdb1 f53d f8e6 2f3e
00000190: 17ad 193c 7599 fa3c 7a6e ef3d f301 ca3d
000001a0: 3060 e3bd 677b 24be 5855 8cbc fbc3 293e
000001b0: 731e 2e3e cb33 bebd 0e9d 8c3e 89d8 c0be
000001c0: 24f5 553e 43c6 343e ed20 b93d 2b54 66bc
000001d0: c119 033d 915b 0cbe d909 6b3d 9735 35be
000001e0: 9907 89bc b673 3f3e 484a f33d 423b 183d
000001f0: 9880 febc d874 debc 3600 853e 1276 39be
00000200: 5682 383e 4091 6a3d 3674 343e 217a 1a3b
00000210: 3185 85bd 04c9 a13d 1bd8 d03c 2173 23bc
00000220: 67cb fbbb 7838 b03c c143 85bc 87d5 1c3e
00000230: 0be7 9dbc 7823 0f3d 8e44 5cbe 7bea 5cbd
00000240: bfc3 013e 0ea3 7abe 7031 823c 5a40 c43c
00000250: 549f 26bd ba4a 2b3e ef94 623e bedf fc3c
00000260: bc92 f13e 2fcc c9bd 8d7b f43d a7d0 243e
00000270: 51ce a1bd 404d 383e 3635 b3bd df73 a3bc
00000280: d405 323e 36d9 4f3d 5283 9b3e c713 383e
00000290: aba3 473e 3a26 6dbe 679c 26be 9389 48bd
000002a0: 053a f8be 1acd 8b3e 9aee 99be 26ed 1bbe
000002b0: b2ca ff3d ef47 01be 1153 b33d dcac c23d
000002c0: a5f0 0bbe 7885 36be 5b63 b4bd 6971 53be
000002d0: d273 37be dc7c 983b cab7 12be 72ab 493d
000002e0: 2955 90be da57 cbbe 5fc4 d23d 1871 49bd
000002f0: 5633 2dbe ee4b 983e db36 a73d 2d31 393d
00000300: 60fb 8d3e d1d7 01bf bc2b cbbe af90 97be
00000310: 62cf 163d 8ed0 613e 5659 f83d 06e2 96be
00000320: e332 e5be fcad adbe efeb 19be 5d5b e53d
00000330: a9c2 2d3e 9776 4a3c 6bcb 40bc 78bb b3bb
00000340: 8a10 0f3c 1b90 a13e e977 bd3c 6851 453e
00000350: 952a 0e3e fcbb 9fbb 92a3 15be 0f35 eebd
00000360: e1b9 e1bd 3f24 023e daf5 ad3d 9256 ab3d
00000370: 252d 2ebe b506 d23d 00ec 5c3e 957b 673e
00000380: 88de 283d 2833 18bd e4a0 e73d 0a63 9ebe
00000390: 595d ae3d 6baf 1bbe 3542 a8be 8a32 bb3b
000003a0: c9ed 14be 81e6 803c bcb5 253d 8ec0 ed3c
000003b0: faf4 b6bc 044d 8b3d 8e40 47bd 66fc 11be
000003c0: 9134 373e c10f 053e 5df7 3b3e e07a dfbd
000003d0: c470 02be 9ff5 4a3e 5ce9 d83d b77e 313d
000003e0: c6fb 5a3e 0a5e 693d 890f 753e 8081 b23e
000003f0: 45ef 2ebe 83a7 753e 39e3 8f3e 412a 0cbf
0.071909785 0.09428193 0.36144182 0.14470401 -0.20543769 0.3621624 0.20275034 0.044952378
0.26637992 -0.28901297 0.2513851 -0.4458831 0.07579825 0.041834332 0.03011577 -0.33562502
0.15873682 0.2149887 -0.022628652 0.13168657 -0.06760972 -0.31097382 0.058937423 -0.42723203
0.18013738 -0.29653955 -0.12111899 -0.08898863 -0.15903802 0.06427753 0.36770642 0.053352803
-0.4411386 -0.37417957 -0.10521877 0.29979348 0.14515884 -0.014619477 0.07790064 0.15405858
0.08168869 0.23237513 0.37773848 0.49690756 0.2944068 -0.37539056 -0.19948491 -0.24961454
0.31335482 0.41377658 0.25077698 0.010740901 -0.245724 0.38976744 0.2678369 -0.042012084
0.0032824993 -0.13586986 -0.009613415 0.14035304 -0.010481882 0.2552362 0.26990676 -0.5657501
0.531323 0.09707684 0.27988446 0.4458653 0.040893715 -0.30889216 -0.13515902 -0.29511937
0.051299613 -0.0088882195 -0.28086877 0.12967756 0.14544187 -0.015266147 0.1727336 -0.4251695
0.08574209 0.2185324 -0.17537642 -0.02066947 0.11772699 0.11353582 0.13434227 -0.1104377
-0.23763868 -0.055072244 -0.31972662 -0.216959 -0.40632954 -0.07652459 0.052917257 0.07881177
0.18884335 0.14017238 0.119967915 0.17177951 0.009379647 0.030590752 0.116909936 0.09863653
-0.11102331 -0.160627 -0.017130539 0.16578667 0.17003803 -0.092872225 0.27463573 -0.37665203
0.20894295 0.17653756 0.09039483 -0.014058153 0.032006983 -0.13706805 0.05738244 -0.17696224
-0.016727256 0.18696484 0.118794024 0.037165888 -0.031067178 -0.027155325 0.25976723 -0.18111446
0.18018469 0.057267427 0.17622456 0.002357133 -0.06519545 0.07899669 0.025493672 -0.009976179
-0.0076841596 0.021511301 -0.01626766 0.15315829 -0.019275209 0.034945935 -0.21510527 -0.053934556
0.12672327 -0.24476263 0.015892714 0.023956466 -0.04067929 0.16727725 0.22127126 0.030868407
0.47182262 -0.09853398 0.11937628 0.1609522 -0.0790068 0.17998219 -0.087503836 -0.019952713
0.17385036 0.050744258 0.30373627 0.17976294 0.19496028 -0.23159114 -0.162706 -0.048959326
-0.48481765 0.27304918 -0.3006485 -0.15227184 0.12489833 -0.12625097 0.08756078 0.095056266
-0.13666017 -0.17824352 -0.08808013 -0.20648731 -0.17915276 0.0046535563 -0.14327922 0.04923577
-0.28189972 -0.39715463 0.10291361 -0.04918012 -0.16914114 0.2974543 0.0816476 0.045212913
0.27730846 -0.50719935 -0.39681804 -0.29602572 0.03681887 0.22052214 0.121264145 -0.29469317
-0.44765386 -0.33921802 -0.15031408 0.11199067 0.16968788 0.012357376 -0.011767249 -0.0054849945
0.008731971 0.31555256 0.023128467 0.19269335 0.13883431 -0.0048747044 -0.14613178 -0.11631214
-0.11021782 0.1270914 0.08494158 0.08366121 -0.17009409 0.102551855 0.21574402 0.22605737
0.041227847 -0.03715816 0.11309984 -0.30934936 0.085138984 -0.15203635 -0.32863012 0.005712812
-0.14543833 0.015734913 0.04045652 0.029022481 -0.02233361 0.06801799 -0.04864555 -0.14256439
0.17891146 0.12994291 0.1835608 -0.109121084 -0.12738329 0.1982026 0.10591385 0.043333735
0.21385106 0.05697445 0.23931707 0.34864426 -0.17083462 0.23989682 0.28103045 -0.54751974

rnn.bias_ih_l1 f4 [72]
00000000: e3bb 64be 20c0 9fbe a51d da3d b2a7 443f
00000010: 788a 2dbe f0c4 aabc 4519 26be 8044 abbb
00000020: a5d9 55bd cbaa 01be 472d d23c 0745 f3bd
00000030: 12ea 4abe 0177 3a3e 85d0 713d d913 673b
00000040: 6f78 6e3d 5ea1 74be 4420 433e ccdb b4bd
00000050: e027 653e 4970 383e 8cd8 093e 65d5 debd
00000060: ff90 68bf 6755 29bf 6579 46bf b2c3 12be
00000070: bd15 29bf 4ff3 79bf e23a b23e 3fff 65be
00000080: 7688 18bf 9767 52be 6654 dc3d ab61 cdbe
00000090: 4e91 d3be de9c bcbe e3c4 97bf abea 04be
000000a0: 88c5 4abf ba63 6bbe b2ec fcbe 7004 3ebd
000000b0: bced 8fbe 5609 4abf b31d 88bf 93fc 84be
000000c0: 4d4c 06be 98e6 583d 5cfa 693d 2421 703f
000000d0: c3c4 573c d91a 5dbe 6ce4 febd 1376 2e3e
000000e0: 0693 7dbe 3ed4 433e 3aff 103d 15e9 873e
000000f0: fd92 dabe 439c 7ebe 51db a4bd d3b1 8cbd
00000100: a9b0 bcbe 5516 9ebd d7b3 93be 9fb0 c5bd
00000110: 2288 5ebe de82 85bc 2d57 543e 492d 64bd
-0.22337298 -0.31201267 0.106501855 0.7681838 -0.16947353 -0.02084586 -0.16220577 -0.0052266717
-0.052209515 -0.12662809 0.025656356 -0.118784 -0.19815853 0.18209459 0.05903675 0.0035259633
0.058220323 -0.23889682 0.19055277 -0.088309854 0.22378492 0.18011583 0.13461512 -0.108805455
-0.90846246 -0.6614594 -0.77528983 -0.14332464 -0.66048795 -0.97636884 0.3481055 -0.2246065
-0.5958322 -0.20547329 0.10758285 -0.40113577 -0.41321796 -0.3683843 -1.185696 -0.12980144
-0.7920766 -0.22987261 -0.49399334 -0.04639095 -0.28111064 -0.78920496 -1.0634063 -0.2597395
-0.13115044 0.052954286 0.057123527 0.9380057 0.01316947 -0.21592273 -0.12445912 0.17037229
-0.24763116 0.19123933 0.035399653 0.26545015 -0.42690268 -0.24864297 -0.08049644 -0.06869855
-0.3685353 -0.07719103 -0.28848144 -0.096528284 -0.21731618 -0.016297754 0.2073638 -0.05570725

rnn.bias_hh_l1 f4 [72]
00000000: 136f 1fbe 3583 1fbe 26da b2bd 8c01 513f
00000010: aa3e 41be 739f 38be aace 563e e103 963e
00000020: 3362 223e 57f5 0b3d a027 e63c 69c5 153e
00000030: 1e1d 27be 2bc1 dcb9 48a5 91bd ca80 5b3e
00000040: 9651 423e 5339 fa3c e6f0 e13d 49b7 c8bc
00000050: 77d6 cf3d dfce ca3d 998b c03d 8bd7 a93d
00000060: 546d 3cbf aea4 49bf c023 c1be afe3 70be
00000070: 7e9b 02bf e648 6bbf 3790 a73e f2b1 92bc
00000080: 78a7 e3be 3782 cbbd 3cf4 15bd 8e5d 1abf
00000090: 6a8b f9be 040e 28bd fcff 8abf c0b0 00bf
000000a0: 1404 71bf 5ef1 12be ff31 5bbf 0fbe 6cbe
000000b0: 07e2 88be 2baf 22bf 6f27 66bf 5c8b cabe
000000c0: e39f 07be c632 cc3d 079d ac3d a9d8 1440
000000d0: 2608 693e 2556 3cbe 548a 83be bfd6 0e3e
000000e0: d2f5 babd cdda cf3d 3272 2f3d 91b5 41bd
000000f0: 8698 3fbe 0f16 85be c083 143e dbd1 52bd
00000100: 8ff5 09be 25a1 6a3e a28f dabd 554e 8c3e
00000110: efec 96be 2ff8 aa3e 54c1 f13e e745 74bd
-0.15569715 -0.15577395 -0.08733015 0.81642985 -0.1887156 -0.18029575 0.20977274 0.29299834
0.15857773 0.03416952 0.028095067 0.14626087 -0.16319701 -0.0004210559 -0.07111603 0.21435848
0.18976435 0.030544912 0.11032276 -0.02450146 0.10148328 0.09902739 0.09401626 0.08293065
-0.7360432 -0.78766906 -0.37722588 -0.23524354 -0.5101851 -0.9190811 0.32727215 -0.017907117
-0.44463706 -0.09936946 -0.036609873 -0.60299003 -0.48739177 -0.04102899 -1.085937 -0.502697
-0.9414685 -0.14349887 -0.85623163 -0.23119377 -0.26734945 -0.63548535 -0.8990392 -0.39559448
-0.13244586 0.09970622 0.08428388 2.325724 0.22757015 -0.18392237 -0.25691473 0.13949107
-0.09128918 0.10149155 0.042833515 -0.047292296 -0.18710527 -0.25993392 0.14503384 -0.051469665
-0.1347258 0.22913034 -0.10671927 0.27403513 -0.2947764 0.33392474 0.4721781 -0.059636977

rnn.weight_ih_l2 f4 [72, 24]
00000000: 1ed3 5e3e c5fd 503d ea65 f1bd b470 5dbd
00000010: 965a 9bbe a0a4 813c 5a32 263e 21aa 32be
00000020: 56b0 63be 35c8 183d b30e 54bd b920 c23e
00000030: 9e80 60be c889 f93d cdcf 7b3f 2d4d ddbe
00000040: ebd3 76bd 24d8 a2bd 791b 8dbd 5b23 113e
00000050: 1559 91be 9324 86bd 688d 02bd 5bae e9bd
00000060: 8b8f e93e f99d a13e 117e e43e f861 b4bd
00000070: bb16 bfbe 9cd7 833e 753f 903d ac6e d3bc
00000080: 5970 bbbe 0e9b a1bd 3269 4ebe d436 913e
00000090: 23bf 0b3e 3fe6 0c3e 5a29 b53e db74 b2be
000000a0: 9fd4 673e f5b8 ba3e 05f7 473d 51e2 2c3f
000000b0: 4d58 ebbb 69d1 45be f70f cbbd 5ada b3be
000000c0: 3062 11bd ccce 29bf 92c1 8d3e ccec 563e
000000d0: 51f3 ee3d 6406 a53d 5f63 70bc 214c 353d
000000e0: 63ad 9a3f 06e1 143e 15b0 393f 5106 d5bd
000000f0: 54e3 7abe 2f3e 1dbf 909f 01bf cc92 b23e
00000100: c98c 45bf cd3d 0cbe 8766 2ebe 2467 25bc
00000110: fb39 8cbe 4049 ac3e f0d9 613d bf1d ae3c
00000120: a220 a3be 5872 283f 225b 56bf 34be 4fbd
00000130: 0732 9e3f 3aad 17c0 9bbf 3f3d c89d ae3c
00000140: 7e86 14c0 da09 a1be e3e7 a5bf e8ce a33f
00000150: 92ad 6ebe e8e1 c63e 13af 88be 0cc3 fc3e
00000160: 69d5 27bf ff53 39be e218 4b3e c216 1fbf
00000170: d6ae 15be 3700 933f fb81 7fbd 5c88 453f
00000180: 5d5a 65bd d0b9 b63d 5f43 353e 9800 1c3f
00000190: 90d4 023c 937b 94bd b7dd 103e 9592 aabe
000001a0: 0bf7 32bf 0e74 a3be b488 b2bd 0878 0d3e
000001b0: ca0b 9cbe dfbc 61be 4e58 603f f1b0 87be
000001c0: d84a a63d 05a8 213d c78b ffbe 114b 70bb
000001d0: 0240 d3be 2567 7fbe 4322 b13e 9b4e 4abe
000001e0: b0c4 41bd eb32 0a3e 56ff 993d ece8 ab3b
000001f0: de02 743d 72b9 423e 2f77 49be 422d a53c
00000200: c32f 90be a3f7 e23e 932b 9e3d fbce 0c3d
00000210: 66e8 403d 5bea 113d 7a99 c3bd f33f 9abe
00000220: 64b3 033e 8806 173e 89f7 3cbe 3a86 b43e
00000230: 870b dabc 30c7 533d 1795 1dbe 5042 acbd
00000240: 29bd 97be 8ef5 2f3f 9b01 05be ad87 ef3f
00000250: d7d8 203e 3302 53be a38e 7bbf 2a09 643e
00000260: 86d2 d9be 4bf1 1a3f 55f0 5dbe 4894 2f40
00000270: ab27 0dc0 9978 abbe e866 6abf 8139 08be
00000280: 3743 b0bd e74a 963d 86ba c1bf 6a94 a13d
00000290: 6212 c7bf 8604 123e 3553 a43e d51b 973d
000002a0: e124 fc3d 78da 2abf d0e6 183e f572 b23e
000002b0: a596 7cbe f52a 623d 7a8f 36be f137 7abe
000002c0: 79b1 133f f688 333e baa5 353f cbfe 84be
000002d0: 2ec5 48be 1cd4 02be 2216 0bbe e3be 8f3e
000002e0: 77fc 1ebf 1a42 f8bd e93f 29be 8c01 783e
000002f0: 4f90 c3bd 7a62 b53e 994c 163d 047c 9b3d
00000300: 3ad1 7a3e b6b4 cbbe 4e41 073e b63c 71bd
00000310: 3ee8 65be 2e2a ef3e 4969 cfbd 108a 03be
00000320: e06a 213f bcde c23c 79e0 063f 0f26 2dbe
00000330: d956 07be 4850 723e 1d6e 52bd 13cb b2be
00000340: e945 eebe fb73 1ebe cef5 063e dbf5 b83e
00000350: cde6 f53d 6b4d d7be a2b1 16be 8cf3 adbe
00000360: f927 8cbd e8c6 c83e 0f72 973e d6e0 e03d
00000370: 0c42 1a3d 9210 473e 8d9d 86be 5112 cfbd
00000380: c52a b2bf 27a3 5cbc cc50 24be b07b 8c3f
00000390: 4556 64be c298 a03d 7c70 293f 129f 92be
000003a0: e277 debd d56a 4a3e 9cb3 09be d1c6 983d
000003b0: ddba acbd 8a8f 60be b034 323e bfa3 37be
000003c0: e130 31be cfaa eabe e946 e2bc dd5a 813e
000003d0: bdb9 38be 3a54 1b3e ca2e 20be bb82 e83e
000003e0: d9f6 713f 0003 893e 5303 4e3e da82 50be
000003f0: f168 563e 6242 14be dcef ebbe abab aebc
0.21760222 0.051023263 -0.11787017 -0.05406256 -0.3034255 0.01582557 0.16230145 -0.17447712
-0.22235236 0.037300307 -0.05177183 0.3791559 -0.21924064 0.12184483 0.98363954 -0.43222943
-0.060260694 -0.07951382 -0.068900056 0.14173643 -0.28388277 -0.06549945 -0.031873137 -0.11410209
0.45617327 0.31565836 0.4462743 -0.088077486 -0.3732203 0.25750434 0.070433535 -0.025809608
-0.36609152 -0.078909025 -0.20157316 0.28362143 0.13647132 0.13759707 0.3538311 -0.3485478
0.22639702 0.36469236 0.04881956 0.6753283 -0.007182157 -0.19318165 -0.099151544 -0.35127527
-0.03549403 -0.6633117 0.27686745 0.20988768 0.11667503 0.080578595 -0.014672129 0.044262055
1.2084163 0.14538965 0.72534305 -0.104015954 -0.24500781 -0.6142301 -0.506341 0.34877622
-0.77167946 -0.1369545 -0.17031299 -0.010095391 -0.27387986 0.33649635 0.055139482 0.021254418
-0.31860834 0.65799475 -0.8373281 -0.0507185 1.2359017 -2.369948 0.04681359 0.02131547
-2.3207088 -0.3145283 -1.2961391 1.2797518 -0.233084 0.38844228 -0.2669607 0.4936756
-0.65560013 -0.18098448 0.19833711 -0.621441 -0.14617476 1.148444 -0.06237982 0.7716119
-0.05599438 0.0892216 0.17701481 0.60938406 0.007985249 -0.072501324 0.14147078 -0.33314958
-0.6990821 -0.3192448 -0.0871748 0.1381532 -0.30477744 -0.22044705 0.8763474 -0.26502183
0.08119744 0.039466877 -0.4991133 -0.0036665837 -0.41259772 -0.2494169 0.34596452 -0.19756548
-0.047306716 0.13495986 0.075194046 0.0052462723 0.059573047 0.19016054 -0.19674371 0.020163182
-0.2816144 0.44329557 0.07723155 0.03437708 0.047096632 0.03562389 -0.09550758 -0.30126914
0.12861401 0.14748585 -0.18453802 0.35258657 -0.026616825 0.051703632 -0.15388905 -0.084110856
-0.29636505 0.6873406 -0.12988894 1.871328 0.15707718 -0.20606308 -0.9826452 0.22269121
-0.4254343 0.60524434 -0.2167371 2.7434254 -2.2055461 -0.33490446 -0.9156327 -0.13303186
-0.0860657 0.07338505 -1.5135047 0.07889636 -1.5552485 0.14259538 0.32094732 0.073783554
0.123117216 -0.66739607 0.14931798 0.3485333 -0.24666841 0.05521675 -0.1782817 -0.24435402
0.57692677 0.17532715 0.70956004 -0.25975642 -0.19606468 -0.12776226 -0.13582662 0.28075323
-0.6210398 -0.12121983 -0.16528286 0.2421934 -0.09549009 0.35426694 0.036694143 0.075920135
0.24493876 -0.3978631 0.13208506 -0.05889579 -0.22451875 0.46711868 -0.101275034 -0.12845635
0.63053703 0.023787849 0.5268627 -0.1690905 -0.13216724 0.23663437 -0.051374543 -0.34920558
-0.46537712 -0.1547393 0.13179705 0.36125073 0.120069124 -0.42051253 -0.14716199 -0.33974874
-0.06843562 0.39214253 0.29579207 0.10980384 0.037660643 0.19439915 -0.26292077 -0.101109155
-1.3919302 -0.013466633 -0.16046447 1.0975246 -0.22298534 0.07841636 0.6618726 -0.28636986
-0.108627096 0.19767316 -0.13447422 0.07459796 -0.08434079 -0.21929756 0.17402911 -0.17933558
-0.17303802 -0.45833442 -0.027621703 0.25264636 -0.18039604 0.15168849 -0.15642849 0.4541224
0.94517285 0.267601 0.20118456 -0.20362416 0.2093847 -0.14478448 -0.46081436 -0.021322092

rnn.weight_hh_l2 f4 [72, 24]
00000000: c853 80bd a240 7fbd 21cb 833f f3b1 0dbe
00000010: 597b 41bd f649 74bd 0c76 083e 3384 e7bc
00000020: d426 113f 1d8b be3e e719 2bbe a37c dfbd
00000030: a193 74bd e5a1 23be 71dd ef3e a45c 163e
00000040: 39b0 dabe a32a a23c cade 13be 66cd b63e
00000050: 78f6 d9be bb9b 4cbb acc1 9bbd 7b03 483e
00000060: 6cf0 0fbf 91e7 32be a94c e43d e28c 29be
00000070: a494 e7be 4d7e 6ebb 0978 cf3e 07cc 0dbf
00000080: 970a 733e 24e3 aa3f cf02 063d cb85 06bc
00000090: bdb6 b1bd b2a5 de3d afda 233f 2f66 3c3d
000000a0: 286c da3e 16e2 90be 0d9d 12bf 6924 553f
000000b0: 4e5c 27bf 5f3a 96be 0f63 e73e a830 8f3d
000000c0: 18b8 6a3e e70e 7e3d 879c b5be 970b 47be
000000d0: 29a1 1a3e d758 82bd b9ba 6bbe 76f4 d33d
000000e0: 70af 68be f7d6 3dbb 2827 b6be 31c1 cfbe
000000f0: a0e2 2bbd f593 c1bd f483 9fbc c7ed eabd
00000100: 61a7 0ebd a26a 34be e1aa 60be ca79 3f3d
00000110: 6547 683e 7279 a1bc f903 86bd 9ec6 7a3d
00000120: bb43 94be 32eb acbe f68d 2f3f 9d48 f6be
00000130: 388d 893d 22f3 613e 4de3 d6bd adad 0ebf
00000140: 0819 8d3e c4c2 fa3e eb59 6fbd f134 063f
00000150: 2668 e9be ae82 89be 30b6 12bd 5a4a 993e
00000160: 4299 acbd 3253 b9bd c9a9 92bf 05a0 1b3f
00000170: ea3d f4be adfb 16be 2720 3c3f 1198 dc3d
00000180: 2712 3f3e 70f1 38bd 89fc e13e d16d 813e
00000190: 06c3 663e b3db e83c 2f19 8cbc d619 16bf
000001a0: 29af 0dbe 80f5 923e 961f 7b3e 1704 343e
000001b0: 5bc6 f03d 8e96 ca3e 4637 5c3e 3e0d 52be
000001c0: 1096 3dbe bcde 2ebb 9c08 a93e 0360 273e
000001d0: 13e2 f03d 6d8b b5bd 4bf0 62be 5970 22be
000001e0: fe28 eb3d be47 9bbd 5e78 263d d949 313e
000001f0: 1846 15be ddce b03c 47df 883c 3e77 293e
00000200: e78e e43d dc64 9c3d 55f0 613e 4975 2dbe
00000210: 3c57 413e 3f3a b1bd 9488 c13d c25c fb3a
00000220: 02be 6c3e 0aed ec3d bed6 9d3e f8da 18bd
00000230: 049f 13be 76a7 c43d 3002 c3bc 2e76 47be
00000240: ee47 a53e 4e61 f83d 79c9 09bf 32eb 023e
00000250: afb8 25bf 4fad 6a3f 6fb8 523e 7745 92bf
00000260: 5d18 3a3d f9d2 9ebe 97c3 063f 5b87 8ebe
00000270: 0436 48bf bbca 863f 6ccf 4e3e 5c74 b8bd
00000280: 4cb6 053e 525f 103e a3a0 6f3f 6695 adbc
00000290: aaa0 993e ed2c 6cbe 3fca 25bd fa13 c1bd
000002a0: 103f 20bd 291d 9bba 0976 003e 6e2e 213d
000002b0: ea92 3a3e 8366 64be 9bcf 0ebd 270f 7b3e
000002c0: 14d8 fdbb 24a0 d239 910d 3c3e 7c04 94be
000002d0: 6686 143e 2d50 323d c05a f03d 9edd 623e
000002e0: 8f59 0a3d 0eea 1bbc e6f6 4dbc a20b 85be
000002f0: d896 8e3d 9c82 273c 6e18 1ebe 16e9 15bd
00000300: 2c96 c2be fbee aabe db73 093e c7ba 3abe
00000310: a4a6 8ebd 5f70 05bd a825 b33d dcd6 83be
00000320: 44d6 983e d780 69be 73ac 7abd 1aa2 133e
00000330: 71fe c33d 2537 8ebc ce80 d53d b6cd 213d
00000340: debd 99be a20f 53bf 9fca ebbe 6d9b f73d
00000350: a8f4 f9be ba73 85bd a681 54be b5a5 ac3e
00000360: 7ccd 74be 63fd ddbd 77e2 a53e 465a e33b
00000370: 0512 d53d fb67 2f3d 040e 0dbe 7cd4 8cbd
00000380: 9a28 343e 6f21 093e f766 9ebe 0622 99bd
00000390: 434c db3d 38f6 b6be f22a 993d c8d6 07be
000003a0: 56ba 903d 3137 fdbd 1969 b4be 1b65 553e
000003b0: c58c 6fbe 353a 823d 9c59 34bd dcc9 603e
000003c0: f095 3cbe a30c 883d 7139 23be 2d60 78bd
000003d0: 98b6 b2bd b822 dbbb 349f aa3d 7259 d43e
000003e0: fed5 bfbb 3c7a 7e3e 5f02 2e3e 48b0 0a3d
000003f0: 6a85 43be 54b2 6d3e f143 0f3e a598 8fbe
-0.0626598 -0.062317498 1.0296365 -0.13837413 -0.047236774 -0.059640847 0.13326281 -0.02826128
0.5669987 0.3721551 -0.167091 -0.109124444 -0.059711102 -0.15979727 0.46848634 0.14683777
-0.42712572 0.019795721 -0.14440456 0.35703582 -0.42570853 -0.0031220752 -0.07605299 0.19532578
-0.5622623 -0.17471148 0.11147434 -0.16557649 -0.4523059 -0.00363912 0.40521267 -0.55389446
0.23734508 1.3350568 0.032717522 -0.00821061 -0.08677433 0.108714476 0.6400556 0.045995887
0.42660642 -0.2829749 -0.5727089 0.8325868 -0.6537522 -0.2934141 0.45192763 0.06991702
0.22921789 0.06202593 -0.35470983 -0.19438015 0.1510054 -0.06364601 -0.23020448 0.103493616
-0.22723174 -0.002896724 -0.3557675 -0.4057708 -0.041964173 -0.09452049 -0.0194721 -0.11471134
-0.034827594 -0.17618802 -0.21940185 0.046747006 0.22683485 -0.01971123 -0.065437265 0.061224572
-0.28957924 -0.3377319 0.6857599 -0.48102275 0.067163885 0.22065404 -0.10492573 -0.5573376
0.2755816 0.4897672 -0.05843536 0.5242453 -0.4558727 -0.26857513 -0.03581828 0.29939538
-0.08427669 -0.09049071 -1.1458064 0.60791045 -0.47703487 -0.14744444 0.7348656 0.10771192
0.18659268 -0.045152128 0.44137982 0.25279096 0.22535333 0.028425073 -0.017101852 -0.5863317
-0.1383635 0.28702927 0.24523768 0.17579685 0.11756583 0.3956799 0.2150546 -0.20512864
-0.18514276 -0.0026683053 0.3301438 0.1634522 0.1176187 -0.08864484 -0.22161977 -0.1586317
0.11482428 -0.07582043 0.040642135 0.17313327 -0.1457752 0.021583015 0.01670803 0.16549394
0.11160069 0.07636425 0.22064336 -0.16939272 0.18880934 -0.08653688 0.09449878 0.0019177424
0.23119357 0.11568649 0.30827898 -0.0373182 -0.14416128 0.09602253 -0.023804754 -0.19478676
0.3228144 0.121279344 -0.5382305 0.12785032 -0.6473493 0.916707 0.20578168 -1.1427449
0.04543339 -0.31020334 0.52642196 -0.27837643 -0.7820742 1.0530618 0.20196313 -0.09006569
0.13057822 0.14098862 0.9360449 -0.021189403 0.3000539 -0.23064013 -0.04047608 -0.09427638
-0.03912264 -0.0011834252 0.12545027 0.03935092 0.18220106 -0.2230473 -0.034865957 0.24517499
-0.007746706 0.00040173635 0.1836455 -0.2890967 0.14504394 0.043533493 0.11736059 0.22154853
0.033776816 -0.009516252 -0.012571072 -0.25985438 0.06962365 0.010224011 -0.15439007 -0.03659924
-0.38005197 -0.33385453 0.13423102 -0.18235312 -0.06965378 -0.03257787 0.08747417 -0.25749862
0.29850972 -0.22803055 -0.061199617 0.14417306 0.09570015 -0.01736028 0.10424958 0.039502822
-0.3002767 -0.8244573 -0.46053025 0.12090192 -0.4881947 -0.06516214 -0.20752582 0.33720174
-0.23906511 -0.10839345 0.3239934 0.0069382517 0.104038276 0.042823773 -0.13774878 -0.06876466
0.17593613 0.1339166 -0.3093793 -0.074771926 0.10707905 -0.35734725 0.07478894 -0.13265526
0.07066791 -0.123640426 -0.35236433 0.2083935 -0.23393543 0.06358758 -0.04403077 0.21952003
-0.18416572 0.06643035 -0.15939881 -0.060638595 -0.08726233 -0.0066874884 0.08331147 0.4147449
-0.0058543673 0.24851316 0.16993092 0.03385952 -0.19093862 0.23212558 0.13990761 -0.28046146

rnn.bias_ih_l2 f4 [72]
00000000: a528 243e ab41 25be 5bad 6c3e 541e 16bd
00000010: 8ae5 8c3e dab6 853e c590 e93e 2128 23bc
00000020: dc2a 223e bc74 513e ef3f 2bbe 79b1 883c
00000030: 7c64 b33c e6b0 423e fbe9 6a3b 0444 cc3d
00000040: 6ad2 b3be 5fcf 9c3e bf1d 8a3d 0bdc 9fbc
00000050: 328c 86be 3177 4ebd 2a60 d9bd 8c95 083d
00000060: 1774 02bf ba3c dabe 633d 31bf f369 d8bf
00000070: 2acd d9bd a532 b4be 3d02 08bf 052b d1bf
00000080: c76e a0be c13e d0be cf5f cfbe bba5 8dbf
00000090: ed0f 53be 2590 05bd 93af ffbe 7e63 3abd
000000a0: 98b4 0bbf 23ae 7dbf 589b c0be 9f67 61bf
000000b0: 0ab8 a8bf edc1 acbe b145 07bf 0358 0dbe
000000c0: 30f5 35be 65a4 a7bd c5b5 323e 5162 cdbc
000000d0: 2367 26bd 52b5 ab3d 07ee b8be d745 523e
000000e0: 9825 a03d e521 9839 3f1a 40be af5a 06be
000000f0: a1ba 9a3a 5f94 c2bd 840e 1abd b71e dfbd
00000100: 9c72 09be 6b7f 983d 630f ad3c f6ca 963d
00000110: 180f f4bd 1a6d 70bc b932 0b3e fb84 863e
0.1603113 -0.16138332 0.23113005 -0.036650017 0.27518874 0.26116067 0.45618263 -0.009958298
0.15836662 0.20454687 -0.16723607 0.016686188 0.0218985 0.19012794 0.003584503 0.099739105
-0.3512147 0.30626962 0.06743955 -0.019514104 -0.26278836 -0.05040664 -0.10614045 0.033345744
-0.5095839 -0.42624456 -0.69234294 -1.6907333 -0.10634835 -0.3519489 -0.53128415 -1.6341254
-0.31334516 -0.40672877 -0.40502784 -1.1066202 -0.20611544 -0.03260817 -0.4993864 -0.04550504
-0.5457244 -0.99093837 -0.37618518 -0.8804874 -1.3181164 -0.33741704 -0.52840716 -0.13803105
-0.17769313 -0.08185653 0.17452152 -0.025071295 -0.040625703 0.083841935 -0.361191 0.20534454
0.078196704 0.00029016953 -0.18760012 -0.1312053 0.0011804887 -0.09500956 -0.0376115 -0.1089453
-0.13422626 0.07446178 0.021125501 0.073629305 -0.119169414 -0.014674449 0.13593568 0.2627333

rnn.bias_hh_l2 f4 [72]
00000000: 1bab 36be c306 f0bd 2a67 383e f326 85bd
00000010: ff5d 5b3d 24d3 4a3e cdda a53e 941f d9bd
00000020: 5960 2fbd 6159 233d 67f9 ce3d f820 90bd
00000030: 751d 503c da82 8d3c afeb 5b3e 93d5 913e
00000040: a451 58be 88cd a23d 1431 11bd 6bbe d7bd
00000050: 53ac 9abc 2bde a5bd 685d 41be 8044 8abe
00000060: 4419 adbe bfab 29be 140a 3ebf 21fc efbf
00000070: 524d 4fbe 2e2d f0be 0939 6cbe 4d11 e7bf
00000080: 527e 60be a0c2 3bbe f07c 25bf 633a 7cbf
00000090: f703 633c 1f69 5ebe ec71 b1be 4de1 47be
000000a0: 7b48 06bf 39dc 24bf 5323 12be 0db5 65bf
000000b0: 63c6 90bf 82e3 4fbe f2f1 83be 4a04 f1bd
000000c0: 789a babd 568c 8ebe 9ff7 c33d b8bc 273f
000000d0: 1bb6 793e ac7e 753e 0c43 99bf 612d 01be
000000e0: 91c2 4e3d a32b 35bd a8ca 67be 4f9f 56bf
000000f0: 4b56 8b3e 4087 92be e4cb a3bc 45b7 bc3d
00000100: 8722 ea3d 02f3 c53e c58f 27be acd8 193d
00000110: ea7a 613e 09ca bebd 9c55 e7bc 14c8 23be
-0.17838709 -0.1172004 0.18008104 -0.065015696 0.05355644 0.19807106 0.32393494 -0.10601726
-0.042816494 0.03988016 0.101061635 -0.07037538 0.012702336 0.017274309 0.21476625 0.28483257
-0.21124893 0.07949358 -0.035447195 -0.10534366 -0.018880999 -0.08099016 -0.18883288 -0.27005386
-0.3380834 -0.16569422 -0.7423413 -1.8748819 -0.20244339 -0.4690947 -0.23068632 -1.8052155
-0.21923187 -0.18335962 -0.64643764 -0.9852659 0.013855926 -0.21719788 -0.34657228 -0.19519539
-0.52454346 -0.64398533 -0.14271288 -0.89729387 -1.1310543 -0.20301631 -0.25770527 -0.11768396
-0.09111494 -0.27841443 0.09568714 0.65522337 0.24385874 0.23974103 -1.1973586 -0.12614967
0.05047852 -0.04423107 -0.22635901 -0.83836836 0.27214274 -0.28618813 -0.019994684 0.092146434
0.11432367 0.38661963 -0.16363437 0.03756015 0.22019544 -0.09315879 -0.028239064 -0.15994292

linear.weight f4 [3, 24]
00000000: cf95 9cbd 087e 9fbd b89b 73be 87d5 69be
00000010: 8e80 02be 3abf 6c3e 2340 8dbe 788a 8e3e
00000020: e560 a63d 5da0 933e d3ea 96be 636c cf3e
00000030: 9b51 873e d7c1 63be 80d7 d93e 4515 9a3e
00000040: 2cf6 b23d 6566 2bbd 7a1e 1cbe f9c1 553e
00000050: fcc5 adbd cad4 3f3d 5c3d 0b3f 0fcb 9a3e
00000060: 10dc 5ebd df9a 99be b1de 973e cf5a ce3c
00000070: 4917 aa3e 47eb 933e 73c6 0dbe 623a 04be
00000080: 3bcb 2a3e a69b 5f3e 730c fabd 25b9 153e
00000090: e632 1d3e b275 a6be 12ab 943e f727 813e
000000a0: ff09 a5be c8ff 37be 0fa1 4ebe 1203 8b3d
000000b0: 14dd 6abe 3334 adbd aa2f 28bd e0be b73e
000000c0: 0514 1abe a4b6 3ebe 33c0 aa3e b1ee c2be
000000d0: d25b 943e 5e1a 993e 79b6 cdbd 669c dabe
000000e0: 1450 5e3e 72c3 8d3b 79d2 d83d 0d8b 2e3e
000000f0: 0f51 043e b5ff 98bd 1f74 03bc 14f6 323e
00000100: e4e3 f7bd 4917 fabe a0e2 17be 7f6b 803e
00000110: 30e7 d0be 29e6 12bd a7cb a0bd 7675 623d
-0.07645761 -0.077877104 -0.2378987 -0.2283536 -0.12744352 0.23119822 -0.27587995 0.27840018
0.0812395 0.28833285 -0.29476032 0.4051238 0.26429448 -0.22241913 0.42547226 0.30094352
0.0873836 -0.041845698 -0.15246001 0.20874776 -0.08485028 0.04683379 0.543905 0.30233046
-0.054409087 -0.3000097 0.29662088 0.025189785 0.3322089 0.2889044 -0.13845234 -0.12912896
0.16679089 0.21836719 -0.12209406 0.14621408 0.15351447 -0.3251167 0.29036766 0.25225803
-0.3223419 -0.17968667 -0.20178626 0.06787695 -0.22935897 -0.08457222 -0.04106108 0.35887814
-0.150467 -0.1862436 0.3334976 -0.38072732 0.28976303 0.2990293 -0.100445695 -0.42697448
0.21710235 0.0043262774 0.105870195 0.17045231 0.12921546 -0.07470647 -0.008023291 0.17476684
-0.121040136 -0.4884589 -0.14832544 0.25082013 -0.40801382 -0.03586403 -0.078513436 0.0552878

linear.bias f4 [3]
00000000: 815b 0f3e 7728 d93c 7dd6 8cbd
0.1399975 0.026508553 -0.06876848
