file/ae/recovery.pt (torch, 39907 bytes, 14 tensors)

rnn.weight_ih_l0 f4 [72, 3]
0	0x3f00d7c5	0.5032924
1	0x3d886a0f	0.06660854
2	0xbe8a53c4	-0.27017033
3	0xbe3c58ef	-0.183933
4	0xbe8bcb52	-0.2730356
5	0xbead1fbd	-0.33813277
6	0xbed65716	-0.41863316
7	0xbee2e407	-0.44314596
8	0xbef5ef58	-0.48034167
9	0x3e42449b	0.18971483
10	0xbe51f335	-0.20502932
11	0xbe6c03ba	-0.23048297
12	0xbf017a99	-0.50577694
13	0xbe90194e	-0.28144306
14	0x3d92dc95	0.07170979
15	0xbe1bc06c	-0.15210122
16	0x3d468252	0.048464127
17	0xbcda57c9	-0.026653187
18	0xbe8a4c3b	-0.27011284
19	0xbdd054ab	-0.10172399
20	0xbeb888b4	-0.36041796
21	0x3d3ba6f6	0.045813523
22	0x3d02f4d1	0.031971756
23	0x3e52e8d5	0.20596631
24	0xbd54b66b	-0.05193178
25	0x3d47b919	0.048760507
26	0x3e3ebf28	0.18627608
27	0x3dba98b2	0.091111556
28	0xbc0a0819	-0.008424782
29	0x3d6f4e87	0.0584245
30	0xbdbc9906	-0.092088744
31	0x3d1246ba	0.03571198
32	0xbdd44908	-0.10365492
33	0x3e79f4fc	0.2440986
34	0x3d1f656f	0.038915094
35	0xbd9746a1	-0.07386518
36	0x3f192aa9	0.5983072
37	0x3cd1310e	0.025536086
38	0xbd322f5e	-0.043502204
39	0x3e6926e3	0.2276874
40	0xbe1fd0ed	-0.15607043
41	0x3edc0911	0.42975667
42	0x3d5e20b9	0.054230426
43	0xbeac3387	-0.33633062
44	0xbde5a8eb	-0.11213859
45	0x3e924359	0.28567007
46	0xbaf9c0c8	-0.0019054646
47	0x3e79ff92	0.24413899
48	0x3d75afaf	0.059981998
49	0xbea838d1	-0.32855847
50	0xbe90afce	-0.28259128
51	0x3dd7288a	0.10505779
52	0xbea49f50	-0.32152796
53	0xbf7a0ffb	-0.97680634
54	0xbe167aad	-0.14695235
55	0xbdbb2275	-0.091374315
56	0xbe6ff0c8	-0.23431695
57	0xbe2a202b	-0.16613834
58	0xbe82241d	-0.25418177
59	0xbea839ba	-0.32856542
60	0xbe6c7f2b	-0.23095386
61	0xbdce144b	-0.10062464
62	0xbdaed1c7	-0.085361056
63	0x3dff9d8d	0.12481222
64	0x3e4a43b3	0.19752388
65	0x3eb559f1	0.35420182
66	0xbd32438e	-0.043521456
67	0xbea0b23b	-0.3138598
68	0xbe258935	-0.16165622
69	0xbd3e8137	-0.046509948
70	0xbe1be5a6	-0.15224323
71	0x3de4e3f1	0.11176289
72	0xbf2ca90b	-0.6744544
73	0xbfafac8f	-1.3724536
74	0xbfa86486	-1.3155677
75	0xbcb9c670	-0.02267763
76	0xbf12f31b	-0.574022
77	0xbfcbe413	-1.5928978
78	0xbf28275f	-0.65685076
79	0xbf14fd28	-0.58198786
80	0xbf24ba2b	-0.6434657
81	0xbf696835	-0.9117463
82	0xbef4e30d	-0.47829476
83	0xbf206145	-0.6264842
84	0xbe954b73	-0.29159126
85	0xbf03b044	-0.51440835
86	0xbf903651	-1.1266576
87	0xbee32f81	-0.4437218
88	0xbeea3e30	-0.4575057
89	0xbe8ab04f	-0.27087638
90	0xbeb926f9	-0.36162546
91	0xbec0becd	-0.3764557
92	0xbef65bf2	-0.48117024
93	0xbf034fde	-0.5129374
94	0xbee16f1a	-0.44030076
95	0xbecbf50a	-0.39835387
96	0x3b19bc79	0.0023458286
97	0xbdfe283c	-0.12410018
98	0xbed84883	-0.42242822
99	0xbe7cf40b	-0.2470247
100	0xbe67e0ef	-0.22644399
101	0xbec041da	-0.3755024
102	0xbd0e4274	-0.034731343
103	0xbd64e072	-0.05587811
104	0xbf00ed66	-0.5036224
105	0xbed73897	-0.42035362
106	0xbec261b0	-0.37965155
107	0x3cd243a9	0.025667029
108	0xbfbca50c	-1.4737868
109	0xbf903121	-1.1264993
110	0xbf80661d	-1.0031163
111	0xbfa6742f	-1.3004206
112	0xbf9de797	-1.2336301
113	0xc0227106	-2.5381484
114	0xbe2aff44	-0.16698939
115	0xbdc939e5	-0.09825496
116	0xbf73d85d	-0.9525202
117	0xbef7d4e2	-0.48404604
118	0xbf560d7a	-0.83614314
119	0xbf910cf9	-1.1332084
120	0xbe6fb909	-0.23410429
121	0xbe8f55f1	-0.27995256
122	0xbf13f4c7	-0.57795376
123	0xbff95518	-1.9479094
124	0xbfee4970	-1.8616161
125	0xc0258f29	-2.5868628
126	0xbec7afb2	-0.39001232
127	0xbec4dca2	-0.3844958
128	0xbf4d3828	-0.8016381
129	0xbe6589a3	-0.22415785
130	0xbe6ade82	-0.22936442
131	0xbf01a73a	-0.5064579
132	0xbe3dadd7	-0.18523346
133	0xbe9270ff	-0.28601834
134	0xbedad1a0	-0.42738056
135	0xbe15c275	-0.1462496
136	0xbec69318	-0.387841
137	0xbf231ab0	-0.63712597
138	0xbe14ae84	-0.14519697
139	0xbe3c3649	-0.18380083
140	0xbe9cf035	-0.30652013
141	0xbeee990b	-0.46601138
142	0xbe7491d9	-0.23883761
143	0xbf1eee64	-0.62082505
144	0xbea9e429	-0.33181885
145	0x3eb57568	0.35441136
146	0x3f2cbc3f	0.6747474
147	0xbcafff51	-0.021484049
148	0x3e991284	0.2989694
149	0x3ebb1e44	0.36546528
150	0xbee8ab45	-0.45443168
151	0xbecfc87e	-0.4058265
152	0xbeca2354	-0.39480078
153	0xbeac750f	-0.3368306
154	0xbd089df2	-0.033353753
155	0x3e4cc5a8	0.19997275
156	0xbe768ad9	-0.24076404
157	0xbe78ded7	-0.24303757
158	0xbea946b9	-0.3306177
159	0x3e4b079c	0.19827121
160	0xbc566510	-0.013085619
161	0xba001673	-0.00048861577
162	0x3eb3a5de	0.35087484
163	0x3e77861c	0.24172252
164	0x3e86c478	0.2632177
165	0xbe468173	-0.19385318
166	0xbeacddb8	-0.33762908
167	0xbe203b38	-0.1564759
168	0x3dc41c84	0.095757514
169	0x3dfeb8c6	0.124375865
170	0x3da9b5e1	0.08286644
171	0xbd07c7ab	-0.033149403
172	0xbe50cf7b	-0.20391648
173	0xbe86d378	-0.26333213
174	0xbe6131c3	-0.21991639
175	0x3dc3f2d3	0.095677994
176	0xbe2f5c5d	-0.17125078
177	0x3e24f4bf	0.16108988
178	0x3d8a03fc	0.06739041
179	0x3e046cdc	0.12932152
180	0x3f324450	0.69635487
181	0xbe77ccec	-0.24199265
182	0x3b24d196	0.0025149337
183	0xbf1d1ebd	-0.6137503
184	0x3e727eb8	0.23681152
185	0x3f863a24	1.0486493
186	0xbd82ba3a	-0.06383176
187	0xbe6901ef	-0.22754644
188	0xbecf40ce	-0.4047913
189	0xbe99d768	-0.30047154
190	0xbdbec48d	-0.09314833
191	0xbd9884f8	-0.07447237
192	0x3eaf265d	0.34208956
193	0x3e7ea0c1	0.2486601
194	0x3e0b8956	0.13626608
195	0x3f0e5b42	0.55608
196	0xbed41a19	-0.4142616
197	0xbf2ae249	-0.66751534
198	0x3ec3762c	0.38176095
199	0x3dd1952a	0.10233529
200	0x3e1c0290	0.15235353
201	0x3e58d813	0.21176176
202	0x3e9235c2	0.2855664
203	0x3ec91a38	0.39277816
204	0xbea0264f	-0.31279227
205	0xbe6a2950	-0.22867322
206	0xbe472980	-0.19449425
207	0xbe4d89c4	-0.20072085
208	0xbe97c59f	-0.2964296
209	0xbe5dc04f	-0.21655391
210	0xbe09c09a	-0.13452378
211	0xbdbf6dd8	-0.09347123
212	0xbe622bd2	-0.22087029
213	0xbe859716	-0.26091832
214	0xbe4bb4d7	-0.19893204
215	0xbe8ef9cc	-0.27924955

rnn.weight_hh_l0 f4 [72, 24]
0	0xbd206cef	-0.039166387
1	0xbe6299a8	-0.22128928
2	0x3df3365f	0.11875605
3	0xbe62c540	-0.22145557
4	0x3d93c763	0.072157644
5	0x3e797d92	0.24364308
6	0x3dd04b73	0.10170641
7	0xbc699fb1	-0.014259265
8	0xbcddd8f9	-0.027081
9	0x3dbb885b	0.09156867
10	0x3e4d3f88	0.20043766
11	0xbdd2761b	-0.10276433
12	0x3dda33eb	0.10654434
13	0xbe2c3291	-0.16816165
14	0x3d150fcd	0.036392022
15	0xbea96c03	-0.3309022
16	0xbd940933	-0.07228317
17	0x3dca4379	0.09876151
18	0x3e14ff44	0.14550501
19	0x3c8caa28	0.01717098
20	0x3d197a65	0.03747024
21	0x3daa11bd	0.083041646
22	0x3e513ae1	0.20432617
23	0xbe6af95b	-0.22946684
24	0xbed1e976	-0.4099843
25	0x3e022bc3	0.12712006
26	0x3cf5f3ff	0.030023573
27	0x3c07cdc5	0.008288805
28	0x3e31193c	0.17294782
29	0xbe413373	-0.18867283
30	0xbe1bae5e	-0.15203235
31	0xbcb1b38b	-0.021692058
32	0xbe4ef3f0	-0.20210242
33	0xbca891b6	-0.020577293
34	0xbe771709	-0.24129881
35	0xbe0e99f4	-0.13925916
36	0xbeba9fe3	-0.3645011
37	0xbe2f14ad	-0.17097731
38	0xbdccd7fe	-0.10002135
39	0xbf070d87	-0.52755016
40	0xbebc8a91	-0.36824468
41	0x3eb8b555	0.36075845
42	0xbd3743d9	-0.04474244
43	0xbe616629	-0.22011627
44	0x3e489a5c	0.19590133
45	0x3d6b74bd	0.057484377
46	0xbeb8dd9f	-0.36106583
47	0x3d883e38	0.06652492
48	0xbd86811c	-0.065675944
49	0xbe062933	-0.13101654
50	0xbbcf9e69	-0.0063360226
51	0x3c0e8abc	0.008700069
52	0x3e72bc20	0.23704576
53	0xbe4b3851	-0.19845702
54	0xbe135678	-0.14388454
55	0xbdd377d1	-0.103255875
56	0x3e386b84	0.18009764
57	0x3da0065b	0.07813712
58	0x3d919b71	0.07109726
59	0xbdd5e9b8	-0.10444969
60	0xbd6f4579	-0.058415864
61	0xbdf52863	-0.11970594
62	0xbe32e8ef	-0.1747167
63	0x3eabe95d	0.3357648
64	0x3de7b4ce	0.11313783
65	0x3e1b079f	0.15139626
66	0xbc529eb6	-0.012855222
67	0xbd5e646a	-0.05429498
68	0x3d327a25	0.043573517
69	0x3d85746c	0.06516346
70	0x3db862e0	0.09003234
71	0xbe151307	-0.1455804
72	0x3c1d3c45	0.009596889
73	0xbe8e784f	-0.27826163
74	0x3e8162b9	0.25270632
75	0x3ebb1253	0.36537418
76	0x3e67512e	0.22589561
77	0xbebcb4e7	-0.36856768
78	0xbea33781	-0.31878284
79	0x3e296c0b	0.16545121
80	0xbe7c3704	-0.24630362
81	0x3e565792	0.20931843
82	0x3ce80d6d	0.028326714
83	0x3e79f644	0.24410349
84	0xbdd01888	-0.10160929
85	0xbe4972a7	-0.19672643
86	0x3ddfa583	0.10920241
87	0x3dbb9275	0.09158794
88	0xbe6448b4	-0.22293359
89	0x3e4c4f2a	0.19952074
90	0xbe822c43	-0.25424394
91	0xbdfa55c6	-0.12223391
92	0x3e9803de	0.2969045
93	0xbc6c0f47	-0.014407939
94	0xbe71eab2	-0.23624685
95	0xbd92f6ad	-0.07175956
96	0xbe3e23c7	-0.18568335
97	0x3e829280	0.25502396
98	0x3f1783ff	0.59185785
99	0x3d89fc2a	0.067375496
100	0xbd75cef6	-0.060011826
101	0xbecfdd53	-0.40598544
102	0xbe4c593c	-0.19955915
103	0x3ee32de6	0.44370955
104	0xbeb37b98	-0.35055232
105	0x3dee8b67	0.11647683
106	0xbe86c8ed	-0.2632517
107	0x3f1a8356	0.6035665
108	0xbf242b31	-0.64128405
109	0xbe9760f7	-0.29566166
110	0xbc017c54	-0.007903177
111	0xbe91a706	-0.2844774
112	0xbe3851d8	-0.17999971
113	0x3dd6d482	0.104897514
114	0xbe26af36	-0.16277775
115	0xbed5e3b2	-0.4177528
116	0x3eb6ae5d	0.35679904
117	0x3e626549	0.2210895
118	0xbe763f63	-0.24047618
119	0x3dda05d3	0.10645642
120	0xbed57f3d	-0.41698638
121	0xbda3ccfe	-0.079980835
122	0x3d8af2e7	0.06784611
123	0x3b908be9	0.00441121
124	0xbe627260	-0.22113943
125	0xbe1f256e	-0.15541622
126	0x3d2514fb	0.04030321
127	0xbdf931c6	-0.12167697
128	0x3e3c47b4	0.18386728
129	0x3e1b7446	0.15181074
130	0x3c9400c7	0.018066777
131	0xbd473d5b	-0.048642498
132	0xbe4c6766	-0.19961318
133	0xbdc45ca2	-0.09587981
134	0xbd3b685b	-0.045753818
135	0xbe8add02	-0.2712174
136	0x3dab9db1	0.083796866
137	0x3e1bda8f	0.15220092
138	0x3e0841d2	0.13306358
139	0xbd9891dd	-0.07449696
140	0xbe072fa1	-0.13201763
141	0x3d4c6a77	0.04990622
142	0x3e2d2b78	0.16911113
143	0x3bb87ab8	0.0056298636
144	0xbe1b7fa7	-0.15185414
145	0xba5c2e21	-0.0008399208
146	0xbd01bc9d	-0.031674016
147	0x3cf30f9e	0.029670533
148	0xbd6106d0	-0.054938138
149	0x3db6bf87	0.0892325
150	0xbde77d31	-0.11303175
151	0x3dfa220c	0.12213525
152	0x3e064f6a	0.13116232
153	0x3e3165bd	0.17323966
154	0x3e3338d6	0.1750215
155	0xbdaaa4b0	-0.08332193
156	0xbd99597b	-0.0748777
157	0xbe109826	-0.1412054
158	0xbd881c14	-0.066459805
159	0x3c6626eb	0.014047365
160	0x3d96090b	0.073259436
161	0x3db45390	0.08805001
162	0x3dac53bc	0.084144086
163	0xbe2c73e2	-0.16841081
164	0xbb880d80	-0.004152
165	0x3bbf8dba	0.0058457525
166	0x3e205ccd	0.156604
167	0xbd87ac9e	-0.06624721
168	0xbe07994b	-0.1324207
169	0x3d79f85d	0.061027873
170	0xbd2e419d	-0.042543042
171	0x3b9420e7	0.004520524
172	0x3d68d27e	0.056841366
173	0xbdb26a0c	-0.08711633
174	0xbcbe8c23	-0.023260182
175	0x3e9c79aa	0.30561572
176	0xbe801c75	-0.2502171
177	0xbd363e54	-0.044493034
178	0xbd25901e	-0.040420644
179	0x3e885659	0.26628378
180	0xbe870754	-0.26372778
181	0x3e08bcdd	0.13353296
182	0x3d894ffa	0.067047074
183	0xbe5adf19	-0.21374168
184	0xbe835d1a	-0.25656968
185	0x3e3ab06f	0.18231367
186	0xbe6a2956	-0.22867331
187	0xbdd8d071	-0.10586632
188	0x3e34339a	0.1759781
189	0xbd128f73	-0.035781335
190	0xbe23a762	-0.1598182
191	0x3e40bcb4	0.18821985
192	0x3e0a1f7d	0.13488574
193	0xbd5cedca	-0.05393771
194	0xbe1a7e04	-0.15087134
195	0x3d9facc9	0.07796628
196	0xbe4eddf1	-0.20201851
197	0xbe4c88e2	-0.19974092
198	0x3e486e47	0.19573317
199	0x3acf56fc	0.001581877
200	0xbe1abc81	-0.15110971
201	0xbe21939e	-0.15778968
202	0x3d12ad59	0.03580985
203	0x3e5e39a6	0.21701679
204	0xbe059c60	-0.13047934
205	0x3e166568	0.14687121
206	0xbde1d7f1	-0.11027516
207	0x3e2c4223	0.16822104
208	0xbe0ca119	-0.13733329
209	0xbe253774	-0.16134435
210	0x3e350f30	0.17681575
211	0x3e282046	0.16418561
212	0x3dd52986	0.104083106
213	0xbe1a7c2c	-0.1508643
214	0xbe83ccd4	-0.2574221
215	0xbdd18474	-0.102303416
216	0xbf017dac	-0.50582385
217	0xbe82346a	-0.25430614
218	0xbc7c5feb	-0.015403728
219	0x3e2a4cc4	0.16630846
220	0x3d77c992	0.060494967
221	0xbe2f6fdc	-0.17132515
222	0xbe1c02f0	-0.15235496
223	0x3e473d81	0.19457056
224	0x3c75c25c	0.014999952
225	0x3e884cb0	0.26621008
226	0x3d4bfe16	0.049802862
227	0x3d4ba82e	0.049720936
228	0xbe51614b	-0.2044727
229	0xbe806929	-0.2508023
230	0x3d9651cd	0.07339821
231	0xbda0dcad	-0.078545906
232	0x3ce6f991	0.028195174
233	0x3bda1761	0.006655619
234	0x3dfa71bb	0.122287236
235	0xbe4554ec	-0.19270676
236	0x3d19829a	0.037478067
237	0x3e0af171	0.13568665
238	0xbdaa8d0c	-0.08327684
239	0x3d819a68	0.06328279
240	0x3e21d3c6	0.15803441
241	0xbe8fd295	-0.2809035
242	0x3e6440fd	0.22290416
243	0xbe0369a1	-0.12833263
244	0x3ebac615	0.3647925
245	0xbd85e859	-0.065384574
246	0xbe9212a1	-0.28529838
247	0x3dc3ba3b	0.09557005
248	0xbe288a21	-0.16458942
249	0xbe0f0c70	-0.13969588
250	0x3da604d0	0.08106387
251	0xbd3990c5	-0.04530408
252	0xbe5da541	-0.2164507
253	0x3cfe2480	0.031023264
254	0x3e3b5458	0.18293893
255	0x3e209e7a	0.15685454

rnn.bias_ih_l0 f4 [72]
0	0x3c95479d	0.018222624
1	0xbe3d1f45	-0.1846896
2	0xbd208faf	-0.039199527
3	0xbe2dc0d9	-0.16968097
4	0xbc315d78	-0.010825507
5	0xbd903c5a	-0.07042761
6	0x3e152281	0.14563943
7	0xbe9f5841	-0.3112202
8	0xbe13635d	-0.14393373
9	0xbd7b7e42	-0.061399706
10	0xbd3e9a77	-0.046534028
11	0x3e82aad0	0.25520945
12	0xbeaaa22c	-0.33326852
13	0xbd741cea	-0.059597887
14	0x3e6be575	0.2303675
15	0x3d593638	0.053030223
16	0xbea896e5	-0.32927623
17	0xbe15ceb5	-0.14629634
18	0x3d1b1d80	0.03786993
19	0xbdbb766d	-0.09153447
20	0xbd7a1f89	-0.06106523
21	0x3d39b03f	0.045334097
22	0x3e0e9fd4	0.13928157
23	0xbc60df04	-0.013725046
24	0xbf8c5d8a	-1.0966046
25	0xbfa35347	-1.2759789
26	0xbf504aa6	-0.81363904
27	0xbf025a0b	-0.50918645
28	0xbfdd1573	-1.7272171
29	0xbf48fb19	-0.78508145
30	0xbe7e2ac0	-0.24820995
31	0xbea7cd19	-0.32773665
32	0xbe0ec7a9	-0.13943352
33	0x3e175806	0.14779672
34	0x3e752f73	0.23943882
35	0xbe8074e8	-0.25089192
36	0xbfb55b61	-1.4168512
37	0xbffdad05	-1.9818426
38	0xbdc78bb7	-0.09743445
39	0xbfc61285	-1.5474402
40	0xbd8af9d1	-0.0678593
41	0xbff6e27e	-1.928787
42	0xbf2d98c9	-0.67811257
43	0xbf256ca8	-0.6461892
44	0xbe28756c	-0.16451043
45	0xbec77be4	-0.3896171
46	0xbf4db5a9	-0.80355316
47	0xbf4218df	-0.758192
48	0x3dcacc8e	0.09902297
49	0xbe2039a3	-0.15646987
50	0x3d527730	0.051383197
51	0xbd9c5140	-0.07632685
52	0x3e50489f	0.20340203
53	0x3e804134	0.25049746
54	0x3d4c8e7c	0.04994057
55	0x3debe8e3	0.11519029
56	0xbe0f4f03	-0.13994984
57	0xbcbc4885	-0.022983799
58	0xbda3d2d5	-0.079991974
59	0x3e1f92dd	0.15583368
60	0xbdcb9565	-0.09940604
61	0xbc9cc4c4	-0.019136794
62	0xbdabf0fe	-0.08395575
63	0x3e84e02d	0.25952283
64	0x3df53b59	0.1197421
65	0xbda1f62e	-0.07908283
66	0xbca2af5c	-0.019859008
67	0xbc075bd1	-0.008261637
68	0xbd98659c	-0.074412555
69	0x3e4e3573	0.20137577
70	0x3ebc5492	0.36783272
71	0x3e6923c5	0.22767551

rnn.bias_hh_l0 f4 [72]
0	0x3dc7ab33	0.097494505
1	0xbea015bd	-0.31266585
2	0x3e12f9a4	0.14353043
3	0xbd976d4d	-0.07393894
4	0x3d22f383	0.039783012
5	0x3e4412e0	0.19147825
6	0x3c9565c8	0.01823701
7	0x3ce11bf6	0.027479153
8	0x3d1ec1d5	0.03875907
9	0xbdf0d3ac	-0.11759123
10	0x3da92110	0.08258259
11	0x3dddaf79	0.108244844
12	0xbe91898e	-0.28425258
13	0xbe161977	-0.14658152
14	0xbdf0ce9c	-0.117581576
15	0x3de0a14d	0.10968266
16	0xbe8f0d5b	-0.27939877
17	0x3a846c60	0.0010103099
18	0x3d52711c	0.0513774
19	0xbda18dbf	-0.07888364
20	0xbdac1a26	-0.08403425
21	0xbe82bc3f	-0.25534245
22	0xbe6d4e06	-0.23174295
23	0x3d1c0d4d	0.038098622
24	0xbf90eeeb	-1.1322912
25	0xbf87bd67	-1.0604676
26	0xbf803be4	-1.0018277
27	0xbefa2a56	-0.48860425
28	0xbfef6f49	-1.8705837
29	0xbf809885	-1.0046545
30	0xbed3c0bb	-0.4135798
31	0xbf14695c	-0.57973266
32	0xbed9c6f7	-0.4253461
33	0xbdd7bfaf	-0.105346076
34	0x3e465993	0.19370107
35	0xbd99ed18	-0.07515925
36	0xbf9ee2ab	-1.2412924
37	0xbff5194f	-1.9148349
38	0xbdecc422	-0.11560847
39	0xbfc61f00	-1.547821
40	0xbe5b7ca9	-0.21434273
41	0xc003d05e	-2.0595927
42	0xbf28aa25	-0.6588462
43	0xbf1de399	-0.6167541
44	0xbe37c3f2	-0.17945841
45	0xbf1eaeda	-0.6198555
46	0xbf39204f	-0.72314924
47	0xbf890813	-1.0705589
48	0x3c243a51	0.010023669
49	0xbc6ad325	-0.014332567
50	0x3e8abe88	0.2709849
51	0x3d779041	0.060440306
52	0x3e3924f5	0.18080504
53	0x3e878005	0.2646486
54	0xbe594442	-0.21217445
55	0xbda27f88	-0.07934481
56	0x3e207d65	0.15672834
57	0xbca68432	-0.020326708
58	0x3e270e9a	0.16314164
59	0x3d458d12	0.04823024
60	0x3e569587	0.20955478
61	0x3e00efc2	0.1259146
62	0x3e419e65	0.18908079
63	0x3e78f7f8	0.24313343
64	0xbdd4776d	-0.10374341
65	0x3e85d41f	0.26138398
66	0xbe047187	-0.12933932
67	0xbe5a2688	-0.21303761
68	0x3e31a5a4	0.17348343
69	0xbe16ef7f	-0.14739798
70	0x3c5cb2ad	0.013470334
71	0xbd814c17	-0.06313341

rnn.weight_ih_l1 f4 [72, 24]
0	0xbdbed988	-0.093188345
1	0x3da0a26f	0.07843482
2	0xbe866836	-0.26251382
3	0xbea392cd	-0.31947938
4	0xbea1cb20	-0.31600285
5	0x3d81e5c2	0.06342651
6	0x3e4eba18	0.20188177
7	0xbe3adbe2	-0.18247941
8	0x3e68f58d	0.2274992
9	0x3da8b802	0.08238222
10	0x3d95161e	0.07279609
11	0x3e03476f	0.12820219
12	0x3ea3d3cd	0.3199753
13	0xbf87c8de	-1.0608175
14	0xbb909034	-0.0044117216
15	0xbe3b4878	-0.18289363
16	0xbc93a156	-0.018021267
17	0x3cb13fc0	0.021636844
18	0x3db21a9e	0.08696483
19	0x3e2f0b65	0.1709419
20	0x3da3e203	0.08002093
21	0xbc5d02fe	-0.013489483
22	0xbdc95e9f	-0.09832501
23	0xbd45a2d3	-0.048250984
24	0xbe0384e7	-0.12843667
25	0x3e166d1a	0.14690056
26	0x3e909689	0.2823985
27	0x3ea0d883	0.31415185
28	0x3ea4cc75	0.32187238
29	0x3c792ab1	0.015207932
30	0xbd8fe548	-0.07026154
31	0xbbd4f871	-0.006499343
32	0xbc92a24d	-0.017899657
33	0x3e90c82e	0.28277725
34	0xbd8bc451	-0.06824554
35	0x3d72661d	0.059179414
36	0xbeba879f	-0.36431596
37	0x3e455a15	0.19272645
38	0x3e1cf1dc	0.15326637
39	0x3e20471e	0.15652129
40	0x3d695f2f	0.05697554
41	0x3e79588c	0.24350184
42	0xbea6a94e	-0.32551044
43	0xbe6acdf2	-0.22930124
44	0x3e9fe2c2	0.3122769
45	0x3e8dfe5f	0.27733132
46	0x3dcc5a58	0.09978169
47	0x3e53bfb7	0.20678602
48	0xbe35cf35	-0.17754824
49	0x3d481dc6	0.04885652
50	0xbf1bcc3f	-0.6085853
51	0xbc4fadd1	-0.012675718
52	0xbe4224cd	-0.18959351
53	0xbd9302f7	-0.071783
54	0x3e75a150	0.23987317
55	0xbdf1558a	-0.117838934
56	0x3eaf7f11	0.3427663
57	0x3def55da	0.11686297
58	0xbd835603	-0.0641289
59	0xbe90e731	-0.28301385
60	0x3ee3a050	0.44458246
61	0x3e03534c	0.12824744
62	0xbea6df0e	-0.32592052
63	0xbd761801	-0.060081486
64	0x3e231c45	0.15928753
65	0x3d80d525	0.06290654
66	0x3eeb378f	0.45940825
67	0x3ee7c40f	0.45266768
68	0xbdf00f49	-0.117216654
69	0xbee37424	-0.44424546
70	0xbe3a8ecb	-0.18218534
71	0xbe9809de	-0.29695028
72	0x3d9aa539	0.07551045
73	0x3df4c105	0.11950878
74	0xbed10520	-0.40824223
75	0x3e196f8c	0.14983958
76	0xbeede2bb	-0.46462044
77	0x3be58b2f	0.0070051174
78	0x3e34e72f	0.17666315
79	0x3dcc5e72	0.099789515
80	0x3e869c00	0.26290894
81	0x3c4773f8	0.012173645
82	0xbe2de1a8	-0.16980612
83	0xbdb96335	-0.09052125
84	0xbd04d58f	-0.032430228
85	0x3ea5abc4	0.3235761
86	0xbd353964	-0.044244185
87	0xbec8d7f7	-0.39227268
88	0xbe48d871	-0.19613816
89	0xbe3b4183	-0.1828671
90	0x3e4f21e2	0.20227769
91	0x3ea0f1ab	0.31434378
92	0x3e2abb3a	0.16672984
93	0xbeee5ccd	-0.46555176
94	0xbea04c86	-0.31308383
95	0xbd93eefd	-0.07223318
96	0x3d94eba4	0.072715074
97	0x3ece35c0	0.40275383
98	0xbf2301d5	-0.6367467
99	0x3e5042f6	0.20338044
100	0xbeca068f	-0.3945813
101	0xbe3ee8b3	-0.18643455
102	0x3eef05c6	0.46684092
103	0x3d2c585a	0.042076446
104	0xbcceab2d	-0.025228107
105	0x3e3816d0	0.17977452
106	0xbe556dbb	-0.2084264
107	0x3cdc3880	0.02688241
108	0x3de35f43	0.11102154
109	0xbe794d3d	-0.2434587
110	0xbd8d7728	-0.06907493
111	0xbee4d2c1	-0.44692042
112	0x3e51661c	0.20449108
113	0xbd91d954	-0.0712153
114	0x3e3cfd1a	0.18455926
115	0x3efa4e76	0.48887986
116	0xbe5996bc	-0.21248907
117	0xbdc568ca	-0.096391276
118	0xbed771f0	-0.42079115
119	0xbf0ae0c5	-0.5424922
120	0xbe2bab28	-0.1676451
121	0x3e29a6a6	0.16567478
122	0xbed8e118	-0.42359233
123	0xbc919670	-0.01777193
124	0xbecf2d4e	-0.40464252
125	0xbe0af821	-0.13571216
126	0x3cb1e5f0	0.021716088
127	0x3b2ba976	0.0026193536
128	0x3d67bbe4	0.05657567
129	0xbe7b726d	-0.24555369
130	0x3e213cb6	0.15745816
131	0xbe9c4b16	-0.30526036
132	0x3ee8e8c3	0.45490083
133	0x3e41a16b	0.18909232
134	0xbea54a62	-0.32283312
135	0xbe883157	-0.26600143
136	0x3d9b9498	0.075967014
137	0xbd9e7a73	-0.07738199
138	0x3d4b7929	0.049676094
139	0x3ecf3e6d	0.40477315
140	0xbdafa01d	-0.08575461
141	0xbe3e0c57	-0.18559395
142	0x3dc36f49	0.0954271
143	0xbea07289	-0.31337383
144	0xbd976a0e	-0.07393275
145	0xbf1ff465	-0.6248229
146	0x3e6ff8ef	0.23434804
147	0x3dc5c527	0.096567445
148	0x3e9cbc35	0.3061234
149	0xbe4889a7	-0.1958376
150	0xbe786b33	-0.24259643
151	0x3e535634	0.20638353
152	0xbad1661f	-0.0015975869
153	0xbc238c32	-0.009982156
154	0x3da53719	0.0806715
155	0xbdb3b8b3	-0.08775463
156	0xbe247244	-0.16059214
157	0xbe8069d1	-0.25080732
158	0x3d555a1d	0.05208789
159	0xbe54375d	-0.20724244
160	0x3d601909	0.054711375
161	0x3d941424	0.07230404
162	0x3c0d3249	0.008617946
163	0xbe887515	-0.26651827
164	0x3d4b8768	0.04968968
165	0x3e47d4c3	0.19514756
166	0xbe726e73	-0.23674946
167	0x3e2bbfed	0.16772433
168	0xbf2381d6	-0.6386999
169	0xbf3d25ec	-0.7388599
170	0xbe5fac3b	-0.21843044
171	0xbe4eeefe	-0.20208356
172	0x3eadb997	0.33930656
173	0x3e15b5b6	0.14620098
174	0x3ebe2403	0.3713685
175	0xbd0da3a5	-0.03457989
176	0xbf007701	-0.50181586
177	0xbe241f14	-0.1602748
178	0xbecde6e2	-0.40215212
179	0x3f4675f0	0.7752371
180	0x3ea52b0a	0.322594
181	0xbfa4d13e	-1.2876356
182	0x3e4c8475	0.19972403
183	0x3db3d37a	0.0878057
184	0x3e1e09ba	0.15433398
185	0x3f3ec5e4	0.7452071
186	0x3ecd0284	0.40040982
187	0x3d8bba81	0.06822682
188	0xbd903ce3	-0.07042863
189	0x3dfaffd7	0.12255829
190	0x3e3aec2a	0.18254152
191	0x3ee148fc	0.44000995
192	0xbecf4eee	-0.40489906
193	0x3ed8cc2f	0.4234328
194	0xbec0f673	-0.37688026
195	0xbec1de86	-0.37865084
196	0xbf051e4b	-0.5199935
197	0xbd422880	-0.047401905
198	0x3eaae5ea	0.33378536
199	0xbe364c92	-0.17802647
200	0x3e6bf461	0.23042442
201	0xbd77ed78	-0.060529202
202	0x3eb746fd	0.35796347
203	0xbee904b4	-0.455114
204	0x3e0c0d85	0.13677032
205	0x3d893ed6	0.06701438
206	0xbf09c554	-0.53816724
207	0xbe70abf0	-0.23503089
208	0xbc901f9f	-0.017593203
209	0xbdb24a99	-0.087056346
210	0x3e8292dd	0.25502673
211	0x3f1be4a5	0.6089576
212	0xbd35cfab	-0.0443875
213	0xbeaa4a09	-0.3325961
214	0x3d4c67ab	0.049903553
215	0xbf0c70b7	-0.5485949
216	0x3d050409	0.03247455
217	0x3e3c63dc	0.18397468
218	0xbec8c462	-0.39212328
219	0x3d9f2904	0.07771495
220	0xbe8757dd	-0.26434222
221	0x3df404a8	0.119149506
222	0x3e245b89	0.16050543
223	0x3e1c7546	0.15279111
224	0x3e80884a	0.2510398
225	0x3d7bc93a	0.0614712
226	0x3e2dc9b8	0.16971481
227	0xbe12a1bd	-0.14319511
228	0x3eb212e7	0.34780046
229	0xbd272bb6	-0.04081317
230	0x3d4c550d	0.0498858
231	0xbdbff155	-0.09372202
232	0x3e0ed5a1	0.1394868
233	0x3e08e858	0.13369882
234	0x3e1d83f3	0.15382366
235	0x3e7530e7	0.23944436
236	0x3e1adfc6	0.15124425
237	0xbd84e692	-0.0648929
238	0xbd8d7251	-0.0690657
239	0xbe078824	-0.13235527
240	0x3d5c7ac8	0.05382803
241	0x3e0fd4cb	0.14046018
242	0xbe4763e2	-0.19471696
243	0xbce36cc5	-0.027761826
244	0x3e48d34e	0.19611856
245	0xbe2fa203	-0.17151646
246	0xbc62340c	-0.013806354
247	0xbe04182b	-0.12899844
248	0xbda501ba	-0.0805697
249	0xbd91649a	-0.07099266
250	0xbd70a0b2	-0.058747
251	0xbdb279a8	-0.0871461
252	0xbe67136c	-0.22566003
253	0x3eaa2d23	0.33237562
254	0xbeb78ec9	-0.35851124
255	0x3e0ecdc7	0.13945685

rnn.weight_hh_l1 f4 [72, 24]
0	0xbeadbb31	-0.33931878
1	0xbe180504	-0.14845663
2	0xbe4c472d	-0.19949026
3	0xbdff5144	-0.12466672
4	0x3d7fab0a	0.062418975
5	0x3d20c9c0	0.039254904
6	0x3e0274ba	0.1273984
7	0x3e355763	0.17709117
8	0x3e8991a7	0.26868936
9	0xbd14b16c	-0.036302015
10	0x3c16272c	0.009164613
11	0x3ef7c5b1	0.48393014
12	0x3df0f749	0.11765916
13	0x3e677d6f	0.22606443
14	0xbea80b24	-0.32821
15	0x3dc57bf2	0.09642781
16	0xbe70536c	-0.23469323
17	0x3ddc5087	0.10757547
18	0x3da23816	0.07920854
19	0xbe0c2c0a	-0.13688675
20	0x3e4aae49	0.19793047
21	0x3e51a758	0.20473993
22	0x3dbd1e4c	0.09234294
23	0xbe33ee3b	-0.17571346
24	0x3e4b9465	0.19880827
25	0xbd0b8f42	-0.03407217
26	0x3d0787af	0.033088382
27	0x3a41508d	0.0007374369
28	0xbd87292a	-0.06599648
29	0x3ca21ebf	0.019790052
30	0xbd4a6837	-0.049415793
31	0xbd03304a	-0.032028474
32	0xbec2baac	-0.38033044
33	0x3d3eadb2	0.046552368
34	0x3e822de8	0.2542565
35	0x3e11c067	0.14233552
36	0xbdac8d2d	-0.08425365
37	0x3d3a0cb5	0.045422275
38	0x3de03181	0.10946942
39	0xbe9c60d0	-0.30542612
40	0xbe3d0997	-0.1846069
41	0xbf00fc92	-0.5038539
42	0xbd4b29cc	-0.049600407
43	0x3e507324	0.20356423
44	0xbd87b6bd	-0.066266514
45	0xbe39d160	-0.18146276
46	0xbe79dfb6	-0.24401745
47	0x3db98d56	0.09060161
48	0x3db4508a	0.08804424
49	0xbe0dbb26	-0.13840923
50	0x3dd5e076	0.10443203
51	0xbe49cf5e	-0.1970801
52	0x3d611245	0.054949064
53	0x3df04aed	0.11733041
54	0xbdc7739e	-0.09738849
55	0xbda0bed5	-0.07848898
56	0xbdbdfd6f	-0.09276854
57	0x3de0ced4	0.10976949
58	0x3d3e4ced	0.04646008
59	0xbd1f7d38	-0.038937777
60	0xbdc185b4	-0.0944933
61	0x3e37f9b3	0.17966346
62	0x3e55c35f	0.2087531
63	0x3e0d8630	0.1382072
64	0x3e20c0ed	0.15698595
65	0x3d29334c	0.041308686
66	0x3da48147	0.0803247
67	0xbe41959b	-0.18904726
68	0x3df7a9ef	0.12092959
69	0xbe16b5e4	-0.14717823
70	0xbdda9473	-0.10672846
71	0xbe474afb	-0.19462197
72	0xbe5da80e	-0.21646139
73	0xbe1abe86	-0.15111741
74	0xbd8a3898	-0.06749076
75	0xbdaa333f	-0.08310556
76	0x3c7d692c	0.015466969
77	0x3e2156d0	0.15755773
78	0x3e0ba0b3	0.1363552
79	0xbd5580dc	-0.052124843
80	0xbb429a69	-0.0029694086
81	0xbdfdc7c8	-0.12391621
82	0xbd9da38e	-0.07697211
83	0xbc591c44	-0.013251368
84	0xbc828356	-0.015931766
85	0xba4ea1d1	-0.0007882389
86	0xbe21ea9c	-0.15812153
87	0xbea2bedd	-0.31786242
88	0x3c4e2ba5	0.012583648
89	0xbe218feb	-0.15777557
90	0xbe532719	-0.20620383
91	0xbd3d310f	-0.046189364
92	0xbc421665	-0.01184616
93	0x3d963e6c	0.07336125
94	0xbd258089	-0.040405784
95	0xbe8d64b9	-0.27615908
96	0x3df1d9ea	0.11809142
97	0xbe164f60	-0.14678717
98	0xbdfae99e	-0.1225159
99	0x3e834eeb	0.25646147
100	0xbeb441fa	-0.35206586
101	0x3de29366	0.1106327
102	0xbd4fb720	-0.05071175
103	0xbe0f2647	-0.13979445
104	0xbd0b451f	-0.034001466
105	0xbe96d070	-0.294559
106	0x3e0bf0fc	0.13666147
107	0xbd5f43dd	-0.05450808
108	0xbd38d8bf	-0.04512858
109	0x3d9d3cf3	0.07677641
110	0x3e97eb8a	0.2967189
111	0xbdce87ee	-0.1008452
112	0xbe0f4208	-0.13990033
113	0x3cefb316	0.0292602
114	0x3ce44880	0.027866602
115	0x3ec67183	0.38758478
116	0x3d889c94	0.0667049
117	0x3d717d5f	0.058957454
118	0x3cb827f5	0.02247999
119	0x3e940068	0.2890656
120	0xbd39047e	-0.0451703
121	0xbe67ca1b	-0.22635691
122	0xbe476561	-0.19472267
123	0xbbdc9952	-0.0067321444
124	0xbcfbdd1d	-0.030745083
125	0x3c007c5e	0.007842151
126	0xbd803cda	-0.062616065
127	0x3decae18	0.11556643
128	0xbe38fce9	-0.18065228
129	0x3e774ac4	0.24149615
130	0x3d101ce4	0.035183802
131	0xbea469df	-0.32112023
132	0x3e69b3d5	0.22822507
133	0x3de62c4c	0.11238918
134	0x3da1f66f	0.079083316
135	0x3d7ba31a	0.061434843
136	0x3c61a8d5	0.013773163
137	0x3e0d0d60	0.13774633
138	0x3c6eb70f	0.014570012
139	0xbe5965d2	-0.21230248
140	0x3e1ff7b6	0.15621838
141	0x3df6dc65	0.12053756
142	0x3d8b2e4d	0.067959405
143	0xbe315ac5	-0.17319782
144	0xbed18019	-0.40918043
145	0xbe5f0eeb	-0.21783035
146	0x3d9f35ef	0.07773959
147	0x3e6e2de2	0.2325969
148	0x3db6564b	0.08903178
149	0x3e1933e4	0.14961201
150	0x3e77410e	0.2414591
151	0x3d9796bb	0.074017964
152	0xbe37bd50	-0.1794331
153	0xbdbef6c8	-0.093244135
154	0xbd488ca4	-0.04896225
155	0x3eb59e4f	0.35472342
156	0x3de195b4	0.11014882
157	0xbd8ef884	-0.06980994
158	0xbdf07677	-0.117413454
159	0x3cd485a1	0.025942625
160	0xbe6093ca	-0.21931377
161	0xbdae44b0	-0.08509195
162	0xbd41d36b	-0.047320765
163	0xbd0a4e04	-0.033765808
164	0x3d5e7572	0.054311223
165	0x3e1e24f0	0.15443778
166	0xbe48c9df	-0.19608258
167	0x3d2d84fb	0.04236315
168	0x3d8a13b5	0.0674204
169	0x3f2ccab1	0.6749678
170	0x3e5f9022	0.21832326
171	0x3e0600a3	0.1308618
172	0xbeddbb4f	-0.43306968
173	0x3da8d068	0.08242875
174	0xbfe55ebd	-1.7919537
175	0x3e190c51	0.14946105
176	0xbd842f13	-0.06454291
177	0xbe7a9df4	-0.24474317
178	0x3e8532ca	0.2601531
179	0xbeab4412	-0.3345037
180	0x3d8a6520	0.06757569
181	0xbe17faa9	-0.14841713
182	0x3ed19539	0.4093416
183	0xbea52b55	-0.32259622
184	0xbd086309	-0.033297572
185	0x3ee31a43	0.44355974
186	0x3d6634d1	0.056202713
187	0x3daac204	0.08337787
188	0x3ed6e118	0.41968608
189	0xbe9cfffb	-0.30664048
190	0x3efa7bce	0.4892258
191	0xbdba66a8	-0.091016114
192	0xbe12d0f2	-0.14337519
193	0x3db28bd7	0.087180786
194	0xbd82c9cb	-0.06386145
195	0xbea1e7fb	-0.316223
196	0x3e3534d5	0.17695935
197	0xbde72c1c	-0.1128771
198	0xbe1836a3	-0.14864592
199	0xbe205572	-0.15657595
200	0xbdce78ad	-0.10081611
201	0x3da0af9a	0.07845993
202	0xbe8eb0cb	-0.27869257
203	0x3da1ef40	0.079069614
204	0x3e9fff91	0.3124967
205	0x3e687ae2	0.22703126
206	0x3df4702e	0.11935459
207	0x3e8554b3	0.26041183
208	0xbdafad87	-0.085780196
209	0x3d9918ca	0.07475431
210	0x3dca93d1	0.09891475
211	0xbee68750	-0.4502511
212	0xbd8fd3dd	-0.070228316
213	0x3da324f5	0.07966033
214	0xbd5d80ac	-0.05407779
215	0xbe9d58b0	-0.30731726
216	0x3e0e1fd0	0.13879323
217	0xbdf856b6	-0.12125914
218	0x3e18e7a9	0.14932121
219	0x3e1187c1	0.14211942
220	0x3db7bcc5	0.08971552
221	0x3e8a2b77	0.26986286
222	0xbe6b4ae5	-0.22977789
223	0xbe9798ae	-0.29608673
224	0xbe0d60e3	-0.1380649
225	0x3d942dba	0.07235284
226	0x3d87f826	0.066391274
227	0xbeb24ef9	-0.34825876
228	0xbe6864ab	-0.22694652
229	0x3dd4da3b	0.10393187
230	0x3df6f45e	0.12058328
231	0xbe31f913	-0.1738017
232	0xbe0385ae	-0.12843964
233	0x3d3cdf1b	0.046111207
234	0x3cb6a5b6	0.022295814
235	0xbd316275	-0.043306787
236	0x3e2d76fc	0.1693992
237	0xbde4bfb1	-0.11169375
238	0xbd13ee26	-0.036115788
239	0x3e81d3fa	0.25357038
240	0x3e4a564e	0.19759485
241	0xbe38376e	-0.17989895
242	0xbce2c355	-0.027681032
243	0x3d01744e	0.031605057
244	0xbf048fe4	-0.5178206
245	0x3d23f1b2	0.04002542
246	0xbf2f025c	-0.68362975
247	0xbca6bc3e	-0.020353433
248	0xbe03ddbe	-0.12877557
249	0xbe1ddbf6	-0.1541594
250	0x3e924405	0.2856752
251	0xbe07257b	-0.13197891
252	0xbef2369e	-0.47307295
253	0x3d7a75eb	0.06114761
254	0x3e9db9a0	0.30805683
255	0xbe5c9754	-0.21542102

rnn.bias_ih_l1 f4 [72]
0	0x3d9ff7ac	0.078109115
1	0xbe862936	-0.26203316
2	0x3e08d2d3	0.13361673
3	0xbe3858e5	-0.1800266
4	0xbe4c9f8f	-0.19982742
5	0x3e2228e2	0.15835908
6	0x3e227404	0.15864569
7	0x3e2b535d	0.1673102
8	0x3e25b6c0	0.16182995
9	0xbe1e527f	-0.15461157
10	0xbe263f45	-0.16235073
11	0x3ec74cac	0.38925683
12	0xbdaaeee9	-0.0834635
13	0x3ea2e83a	0.318178
14	0x3d76b3a2	0.060229905
15	0x3da4de7f	0.0805025
16	0x3e7149a3	0.23563246
17	0x3ea3c975	0.31989637
18	0x3e82323e	0.25428957
19	0xbda19119	-0.07889003
20	0xbe0a0179	-0.13477124
21	0x3e682f9d	0.22674413
22	0xbe53cd4b	-0.20683782
23	0x3c63a25c	0.01389369
24	0xbf3ceebe	-0.7380179
25	0xbf9eff50	-1.2421665
26	0xbf09c165	-0.5381072
27	0xbed991a9	-0.42493942
28	0xbfa07d3e	-1.2538221
29	0x3e4328c1	0.19058515
30	0xbf8ceb80	-1.1009369
31	0xbf8545d4	-1.0411935
32	0x3da8f602	0.08250047
33	0xbeca74c6	-0.39542216
34	0xbee0c5d7	-0.4390094
35	0xbf755f19	-0.9584823
36	0x3eb10599	0.34574583
37	0xbf06f439	-0.52716404
38	0xbf915a03	-1.1355594
39	0x3daa1c5d	0.08306191
40	0x3d8ab4ce	0.06772767
41	0xbf902765	-1.1262022
42	0xbf7539fd	-0.9579161
43	0xbea8a5cf	-0.32939002
44	0xbfb88629	-1.4415942
45	0xbee65e70	-0.44993925
46	0xbe6f3c91	-0.23362948
47	0xbfc8ae65	-1.5678221
48	0xbd8d46ee	-0.068982944
49	0x3ea82c83	0.3284646
50	0xbde8979e	-0.11357044
51	0x3c91ad97	0.01778297
52	0xbe383017	-0.17987095
53	0xbe40faaf	-0.18845628
54	0xbd9816e5	-0.07426242
55	0x3efe6b2f	0.4969115
56	0x3dc769f7	0.09737008
57	0x3e18d6fc	0.1492576
58	0xbe0a8f39	-0.13531198
59	0xbe3811d4	-0.17975551
60	0x3e1dde67	0.15416871
61	0x3d186362	0.037204154
62	0x3cb55fed	0.022140468
63	0x3d630dbb	0.055433016
64	0x3daf52a0	0.08560681
65	0x3e94ef6e	0.2908892
66	0x3e50d7c7	0.20394813
67	0xbd640539	-0.055669043
68	0x3e43d69d	0.19124837
69	0x3e4a7f08	0.19775021
70	0x3d1818e9	0.03713313
71	0xbd824801	-0.0636139

rnn.bias_hh_l1 f4 [72]
0	0x3e4c1167	0.19928513
1	0x3d59680e	0.05307775
2	0xbe0c2d43	-0.13689141
3	0xbd9bda92	-0.07610048
4	0x3d135d13	0.035977434
5	0xbe1173fd	-0.14204402
6	0x3d74780b	0.059684794
7	0x3e9d3be4	0.30709755
8	0x3e458f85	0.1929303
9	0xbd8f7453	-0.07004609
10	0xbe6a996d	-0.2291009
11	0x3f299844	0.66247964
12	0xbe89553f	-0.2682285
13	0x3df33092	0.118744984
14	0xbc2b095b	-0.010439242
15	0x3e11a669	0.14223637
16	0xbdc42ff4	-0.09579459
17	0x3f1eb72e	0.6199826
18	0x3e3531d5	0.1769479
19	0x3e44e0a9	0.19226326
20	0xbe2f73c8	-0.17134011
21	0x3d589b7c	0.052882656
22	0x3e276761	0.1634803
23	0x3d850555	0.06495158
24	0xbf353ffc	-0.7080076
25	0xbf9ca4d7	-1.2237805
26	0xbe3edc18	-0.18638647
27	0xbf26b26e	-0.6511601
28	0xbfbf19c7	-1.4929742
29	0x3e691841	0.22763158
30	0xbf911aec	-1.1336341
31	0xbf6b7a85	-0.91983825
32	0x3dfac236	0.12244074
33	0xbea93339	-0.33046892
34	0xbebc38c9	-0.36762074
35	0xbf6710d7	-0.9026007
36	0x3d905c01	0.07048798
37	0xbf0c7400	-0.548645
38	0xbfb1a1ed	-1.3877541
39	0x3e002243	0.1251307
40	0xbdf7e010	-0.121032834
41	0xbf7c94d3	-0.9866459
42	0xbf75a9b8	-0.95962095
43	0xbe280a9f	-0.16410302
44	0xbf9f9f81	-1.2470552
45	0xbeeb85c6	-0.460005
46	0xbe105483	-0.14094739
47	0xbfd5274d	-1.6652619
48	0x3cc2022e	0.02368268
49	0x3e3e1bb2	0.18565252
50	0xbe5a87d9	-0.21340884
51	0xbe300e78	-0.1719302
52	0x3e3749bd	0.17899223
53	0xbd184f99	-0.037185285
54	0xbe701dfb	-0.23448937
55	0x3ef61df2	0.4806972
56	0xbd5a1427	-0.053241875
57	0xbda3c79c	-0.07997057
58	0x3d585e52	0.052824326
59	0xbe2f5a2b	-0.1712424
60	0x3dd9eb4d	0.10640583
61	0x3e9a69e3	0.3015891
62	0x3d8261d7	0.06366318
63	0x3e8c5b10	0.27413225
64	0x3d0460cd	0.03231888
65	0x3ed364f5	0.41287962
66	0x3f0de88a	0.5543295
67	0xbe0f88fa	-0.14017096
68	0xbd8cfb77	-0.068839006
69	0x3ea564d4	0.32303488
70	0xbc8ef901	-0.017452719
71	0x3e45e592	0.19325855

rnn.weight_ih_l2 f4 [72, 24]
0	0x3e12d667	0.143396
1	0x3f1d853e	0.61531436
2	0xbe1de82e	-0.15420601
3	0xbd4d1b37	-0.050074782
4	0x3df9a3eb	0.12189468
5	0x3d130f2d	0.035903145
6	0xbf1318fe	-0.5746001
7	0x3f2356a3	0.6380407
8	0xbf542f69	-0.8288484
9	0x3d818e52	0.063259736
10	0xbe579f59	-0.2105688
11	0x3d847f7e	0.0646963
12	0xbd094f86	-0.033523105
13	0x3e4c529c	0.19953388
14	0xbb9fe45e	-0.0048795184
15	0x3e6c1910	0.23056436
16	0x4018f06a	2.3896737
17	0xbc62ce1f	-0.013843088
18	0x3e9d6131	0.30738214
19	0xbb379b0c	-0.0028016
20	0x3da91a53	0.08256974
21	0x3eb6c800	0.35699463
22	0xbe241982	-0.16025355
23	0x3fd4a1c4	1.6611867
24	0xbf311da5	-0.6918586
25	0xbf190dd9	-0.59786755
26	0x3e5350ae	0.20636246
27	0x3c07c99b	0.008287813
28	0xbed23702	-0.41057593
29	0xbe0c2a1c	-0.13687938
30	0xbf5e8095	-0.8691495
31	0xbcca79a4	-0.024716206
32	0xbdb0c8ab	-0.086320244
33	0xbe5b489e	-0.2141442
34	0x3dfc5ac5	0.123220004
35	0x3f43d166	0.7649139
36	0xbd1f8f04	-0.03895475
37	0xbd707756	-0.058707558
38	0x3e1dab41	0.1539736
39	0x3e39c7bc	0.18142599
40	0x3ba9a93f	0.0051776464
41	0xbe0934b6	-0.13399014
42	0xbdec034a	-0.11524065
43	0x3e953ac9	0.29146412
44	0x3e929996	0.28632802
45	0xbd6c35ff	-0.057668682
46	0xbf1fef92	-0.6247493
47	0x3f879d44	1.0594869
48	0x3fac03c6	1.3438652
49	0x3f7f7022	0.99780476
50	0xbda2835b	-0.0793521
51	0x3e0c8fd7	0.13726746
52	0xbd246ac2	-0.040140875
53	0xbde6b239	-0.11264462
54	0x3e81f901	0.25385287
55	0x3e6dfa13	0.23239927
56	0x39b82100	0.00035119802
57	0x3de8358e	0.1133834
58	0x3e21a451	0.15785338
59	0xbe9b5746	-0.30340022
60	0xbd9258f9	-0.071458764
61	0x3d9525a6	0.072825715
62	0x3f2a4505	0.66511565
63	0x3e222ebf	0.15838145
64	0x3e56dd65	0.20982893
65	0x3e0de442	0.13856605
66	0xbe0fa79a	-0.14028779
67	0xbce9ce41	-0.028540732
68	0x3e328928	0.17435133
69	0xbe3f8154	-0.18701679
70	0x3e2723c6	0.1632224
71	0x3fa93f10	1.322237
72	0x3be621b1	0.0070230593
73	0x3da6ba0f	0.081409566
74	0xbef6e242	-0.48219496
75	0xbebca310	-0.36843157
76	0xbd3f5e47	-0.04672077
77	0xbe283c0b	-0.16429155
78	0x3cc4316f	0.023949353
79	0x3c964187	0.018341793
80	0x3dcd2b68	0.10018045
81	0x3e372c56	0.17888007
82	0xbd491ced	-0.04909985
83	0x3e11287c	0.141756
84	0x3d9ff0e9	0.07809622
85	0x3e8e87f6	0.27838105
86	0x3d2ac260	0.041689277
87	0xbc3b9f13	-0.0114515005
88	0x3d5c1659	0.05373225
89	0x3eaf0338	0.34182143
90	0x3ebb4d30	0.36582327
91	0xbd92450a	-0.071420744
92	0xbcdd5b8e	-0.027021196
93	0x3c6216e7	0.013799406
94	0x3d118397	0.035525884
95	0xbe41ab36	-0.18912968
96	0xbd12d06c	-0.035843298
97	0x3e1431ce	0.14472124
98	0xbf87453d	-1.0568005
99	0xbf201797	-0.62535995
100	0x3f9d74da	1.2301285
101	0xbe745219	-0.23859443
102	0x3eabfa42	0.3358937
103	0xbce496ac	-0.027903877
104	0x3f3c88f5	0.7364648
105	0x3f7a20aa	0.9770609
106	0xbf03fce3	-0.5155775
107	0x3cb0c9b9	0.021580564
108	0x3f983ca5	1.1893507
109	0x3e829f96	0.2551238
110	0xbf2f4a1b	-0.6847245
111	0x3f09d94a	0.5384718
112	0x3e24d058	0.16095102
113	0x3ec88956	0.3916728
114	0x3e892e1c	0.2679299
115	0xbf907fad	-1.1288964
116	0xbf9396b6	-1.1530368
117	0x3eea0d8c	0.4571346
118	0xbf17207b	-0.59033936
119	0xbf9a87d1	-1.2072698
120	0xbe699ce3	-0.22813754
121	0xbd0744bb	-0.03302453
122	0x3e29750c	0.16548556
123	0x3c93a5c8	0.018023387
124	0xbe97695f	-0.2957258
125	0x3e527ad0	0.20554662
126	0xbded43a5	-0.11585168
127	0xbd16ea1a	-0.03684435
128	0xbe7b7ba2	-0.24558881
129	0xbdde4c4c	-0.10854396
130	0xbe666994	-0.22501212
131	0xbd867336	-0.065649435
132	0xbe4b3ff5	-0.19848616
133	0xbe28e4a6	-0.16493472
134	0x3f1f10e7	0.62135166
135	0xbcc48fe0	-0.023994386
136	0xbe0e8fdb	-0.13922064
137	0xbe18070a	-0.14846435
138	0xbdb8a362	-0.09015538
139	0x3d16d03c	0.03681968
140	0x3df85868	0.12126237
141	0x3d12b2b1	0.035814945
142	0xbe9db3e9	-0.30801323
143	0xbd98c92e	-0.07460247
144	0x3df1459a	0.117808536
145	0xbe2d20b0	-0.16907
146	0x3d0cb498	0.034351915
147	0xbe46d79b	-0.19418184
148	0x3ecb7d51	0.39744046
149	0x3b529cae	0.0032136845
150	0xbe201d1e	-0.15636107
151	0x3e132a0b	0.14371507
152	0x3dce5b56	0.10076015
153	0x3d4edfe1	0.050506476
154	0xbe152425	-0.1456457
155	0x3dce2ad4	0.100667626
156	0x3f1c0856	0.6095022
157	0xbc160b80	-0.009158015
158	0xbe118e42	-0.14214423
159	0x3e36349a	0.17793503
160	0xbd0f071a	-0.034918882
161	0x3cb72851	0.022358092
162	0x3e63a1b5	0.22229655
163	0xbe7d76a4	-0.24752289
164	0xbf0b13ed	-0.5432728
165	0xbdc9720c	-0.09836206
166	0x3da64592	0.08118738
167	0xbedb59f0	-0.42842054
168	0x3e9576db	0.29192242
169	0x3f34dd48	0.7065015
170	0xbe88eff8	-0.26745582
171	0xbd0a91d1	-0.033830468
172	0xbc824178	-0.015900359
173	0x3d3d5d1c	0.046231374
174	0xbe2c14b2	-0.1680477
175	0x3e0dc895	0.13846047
176	0xbde0a8ca	-0.10969694
177	0x3e8c86a1	0.27446464
178	0x3c8eb13f	0.017418502
179	0xba4272db	-0.00074176275
180	0xbe1f034f	-0.15528606
181	0x3e9d11df	0.30677697
182	0x3ed64871	0.41852143
183	0x3e275179	0.16339673
184	0x3f4f6dd9	0.8102699
185	0xbd11e212	-0.035615988
186	0x3ee35d25	0.44407
187	0x3d116c3d	0.035503615
188	0x3e026e8d	0.12737484
189	0xbc82c305	-0.015962133
190	0x3ea7a303	0.32741556
191	0x3f224c29	0.6339746
192	0xbe24c578	-0.16090953
193	0x3b5b9266	0.0033504008
194	0x3d2efc7a	0.04272125
195	0xbd95eeb6	-0.07320921
196	0xbf04578d	-0.5169609
197	0xbe26b1d4	-0.16278774
198	0x3d87b5bc	0.0662646
199	0xbd0cc37f	-0.034366127
200	0xbd99bbfb	-0.075065576
201	0x3e8b0987	0.27155706
202	0xbf2be987	-0.6715321
203	0x3e78c41b	0.24293558
204	0x3ee1ff82	0.4414025
205	0x3ce2b149	0.027672427
206	0xbeecc13d	-0.4624118
207	0x3e4d24a2	0.20033506
208	0xbe262ce6	-0.16228065
209	0xbdb9009d	-0.0903332
210	0x3e320186	0.17383394
211	0xbf204afd	-0.62614423
212	0x3e288cd5	0.16459973
213	0x3d3dfc0a	0.04638294
214	0xbe940b41	-0.28914836
215	0xbef492fb	-0.47768387
216	0xbe5d4926	-0.21609935
217	0xbe46f71d	-0.19430204
218	0x3e837704	0.2567674
219	0x3dda880f	0.10670482
220	0xbe656e21	-0.22405292
221	0x3e9dbb04	0.30806744
222	0xbe2b9f27	-0.1675993
223	0xbd2d4151	-0.04229862
224	0x3d121fa8	0.03567472
225	0xbd72c634	-0.059271052
226	0x3e1fea9e	0.15616843
227	0x3e464536	0.1936234
228	0xbc826dc5	-0.015921483
229	0xbbbf8f31	-0.005845927
230	0x3e5f80e6	0.21826515
231	0x3daa255a	0.083079055
232	0xbd494f18	-0.049147695
233	0xbe6e52ff	-0.23273848
234	0xbde91a8c	-0.113820165
235	0x3d90b7ba	0.07066293
236	0x3d09a641	0.033605818
237	0xbdf369cd	-0.11885414
238	0xbe33bd69	-0.17552723
239	0x3e01c2a5	0.12671907
240	0x3e8c815f	0.27442452
241	0x3eb40c0e	0.35165447
242	0x3dea43bf	0.11438703
243	0xbdbf770e	-0.0934888
244	0xbced22ea	-0.028947312
245	0x3ccba9d2	0.02486125
246	0xbe26951c	-0.16267818
247	0x3edae469	0.42752388
248	0x3eceb263	0.40370473
249	0x3bafb106	0.005361679
250	0xbe72b8f9	-0.23703374
251	0x3e8d3e5d	0.27586642
252	0xbd2e562e	-0.042562656
253	0x3df34dc0	0.11880064
254	0x3e4115ef	0.18856023
255	0x3d0fd195	0.035111982

rnn.weight_hh_l2 f4 [72, 24]
0	0x3efb0fb4	0.49035418
1	0x3dea0876	0.11427395
2	0x3f3ccb10	0.7374735
3	0x3d4a5d01	0.0494051
4	0x3d97bdc2	0.0740924
5	0x3e9bf270	0.30458403
6	0xbe7d1c98	-0.24717939
7	0x3ec30a1c	0.3809365
8	0x3e57e1b7	0.21082197
9	0xbe88506d	-0.2662386
10	0x3ec64824	0.38726914
11	0xbe021240	-0.12702274
12	0x3eba6fb1	0.3641334
13	0x3e6f5712	0.23373058
14	0xbf692021	-0.9106465
15	0x3d226330	0.039645374
16	0x3e75b95e	0.23996493
17	0xbdf2ecf5	-0.11861602
18	0xbe421c80	-0.18956184
19	0xbe820c83	-0.2540017
20	0x3d7270eb	0.05918972
21	0xbe0ea0fc	-0.13928598
22	0xbeb00a9f	-0.34383103
23	0x3e7afcdb	0.24510519
24	0x3e5c65ea	0.21523252
25	0x3e05c937	0.13065039
26	0x3f1884bb	0.5957753
27	0xbe81322a	-0.25233585
28	0x3e854270	0.2602725
29	0xbe3f0377	-0.18653665
30	0x3d0443e2	0.0322913
31	0x3e2f0a5c	0.17093796
32	0x3e4907ae	0.19631836
33	0x3d34cb89	0.04413942
34	0x3dcef48e	0.10105239
35	0x3de4e3cc	0.11176261
36	0x3ee05bbb	0.43819985
37	0x3f153325	0.58281165
38	0x3e99eeb8	0.3006494
39	0xbda1215d	-0.07867692
40	0x3d88b25c	0.06674644
41	0xbeaf3bcf	-0.34225318
42	0x3e1a329b	0.15058367
43	0xbdb69a05	-0.08916096
44	0x3e8dbe8f	0.27684447
45	0x3e00c061	0.12573387
46	0x3d2c4921	0.04206193
47	0xbe222882	-0.15835765
48	0xbdb6c513	-0.08924308
49	0xbf42d53d	-0.76106626
50	0x3f83445a	1.0255234
51	0x3e00a59d	0.12563176
52	0xbe39b88e	-0.18136808
53	0xbeded24d	-0.43519822
54	0x3e5681af	0.20947908
55	0xbc62ebde	-0.01385018
56	0xbd89672b	-0.06709131
57	0x3e8334d9	0.25626257
58	0xbea3b4e3	-0.31973943
59	0xbea1ffae	-0.3164038
60	0xbf177970	-0.59169674
61	0x3e5134b3	0.2043026
62	0xbe343d10	-0.17601418
63	0xbda6ac79	-0.08138365
64	0x3e771527	0.24129163
65	0x3e08e142	0.13367179
66	0x3cdd69df	0.027028022
67	0xbecc14e0	-0.39859676
68	0x3dffa277	0.124821596
69	0xbe4f2b98	-0.20231473
70	0xbd660b5b	-0.056163173
71	0x3d80837f	0.06275081
72	0xbd25abff	-0.04044723
73	0x3dd79efb	0.1052837
74	0x3ef4fce0	0.47849178
75	0xbe534c4e	-0.20634577
76	0x3c3017e6	0.010747885
77	0x3dd4a7a4	0.103835374
78	0x3e62c5a0	0.221457
79	0x3e8a4dbf	0.2701244
80	0x3df74374	0.120734125
81	0xbd6c309c	-0.057663545
82	0xbdfefad7	-0.12450188
83	0x3e2a85f8	0.16652668
84	0x3d7776ef	0.06041616
85	0x3e712c4e	0.23552057
86	0xbebb5bfb	-0.36593613
87	0x3d7a058c	0.061040446
88	0x3cc6eef1	0.024283858
89	0xbe0d9a94	-0.13828498
90	0x3e37bb74	0.17942601
91	0xbe9c6995	-0.30549303
92	0xbcba66d4	-0.02275411
93	0xbe226c56	-0.1586164
94	0xbd8ca1b3	-0.06866779
95	0x3dead5e5	0.114665784
96	0x3a9bd524	0.0011889082
97	0xbdef1604	-0.11674121
98	0x3ea38521	0.31937507
99	0x3d2ec3f9	0.042667363
100	0xbef1456f	-0.47123286
101	0xbe48af66	-0.19598159
102	0x3e25334e	0.16132852
103	0x3d9823f0	0.074287295
104	0x3d8d0c32	0.06887092
105	0xbd5ec5ba	-0.054387785
106	0x3e31edd5	0.17375882
107	0x3e24a7ff	0.1607971
108	0x3d9135c6	0.070903346
109	0x3eab5ea1	0.33470634
110	0x3da7c324	0.08191517
111	0xbe348a5f	-0.1763091
112	0xb9096b95	-0.00013105416
113	0xbe78fd70	-0.24315429
114	0x3cc7bd27	0.024382187
115	0xbe4e565e	-0.20150134
116	0xbc88229d	-0.016618067
117	0xbcc9e644	-0.024645932
118	0x3c7c6f57	0.015407405
119	0x3f454c13	0.77069205
120	0xbe0a2754	-0.13491565
121	0xbef86416	-0.4851386
122	0x3c11dc78	0.0089026615
123	0xbe8f054e	-0.27933735
124	0xbec4a91c	-0.3841027
125	0xbe73df8e	-0.23815748
126	0x3e098e51	0.13433196
127	0xbe37dc09	-0.1795503
128	0x3d85c093	0.06530871
129	0x3e6b7946	0.22995481
130	0x3e196a3c	0.14981931
131	0x3deb3d6f	0.11486327
132	0xbea81f41	-0.32836345
133	0xbeb630fd	-0.3558425
134	0xbc8b387c	-0.016994707
135	0x3e4df1a7	0.20111714
136	0xbd5bf1d7	-0.053697433
137	0x3de8f06f	0.11373984
138	0xbe3f70a0	-0.18695307
139	0x3bc26c6a	0.005933334
140	0x3e9f0c7b	0.3106421
141	0x3e902397	0.28152153
142	0xbdb6c0cc	-0.08923492
143	0xbe8ccb2b	-0.27498755
144	0xbd4e4866	-0.050362013
145	0x3b265216	0.0025378517
146	0x3e263ee9	0.16234936
147	0xbed107b4	-0.4082619
148	0xbe401c76	-0.18760857
149	0x3d36c8a6	0.044624947
150	0x3d715f05	0.05892851
151	0x3d87b193	0.066256665
152	0xbe25a06f	-0.16174482
153	0xbdafeb13	-0.08589759
154	0x3e392f98	0.18084562
155	0x3d20d004	0.03926088
156	0xbe4e3b00	-0.20139694
157	0x3e38a48c	0.1803152
158	0xbe4d5b1c	-0.20054287
159	0x3e8832eb	0.26601347
160	0x3e8e8e41	0.27842906
161	0x3e264731	0.16238095
162	0xbe14ccc8	-0.14531243
163	0xbe95be17	-0.2924659
164	0x3e2f719f	0.17133187
165	0xbe784be7	-0.24247704
166	0xbcde4fbb	-0.027137628
167	0xbedd666c	-0.43242204
168	0xbe2d6e03	-0.16936497
169	0x3eab7db9	0.33494356
170	0xbf56be7b	-0.838844
171	0x3e58a7c3	0.21157746
172	0xbebbf957	-0.3671367
173	0x3e97b962	0.29633623
174	0xbe7bcf3a	-0.2459077
175	0x3d501c84	0.050808445
176	0x3e85bb35	0.2611939
177	0xbeab0984	-0.33405697
178	0xbea9d903	-0.3317338
179	0xbe8608bd	-0.26178542
180	0x3de15e79	0.11004347
181	0xbf2ded0b	-0.67939824
182	0xbdd74501	-0.10511208
183	0xbe4b12d0	-0.19831395
184	0x3e8e8439	0.27835253
185	0xbec32c2a	-0.38119632
186	0x3d951e81	0.07281209
187	0xbd4f6e1a	-0.05064211
188	0xbd090fd9	-0.03346238
189	0xbe72ceba	-0.23711672
190	0x3c8b7bcc	0.017026804
191	0x3ea4ca23	0.32185468
192	0xbe120dba	-0.14263049
193	0x3cbf8d7a	0.023382891
194	0xbdf37db9	-0.11889214
195	0x3e934f63	0.28771505
196	0x3f1c1694	0.6097195
197	0x3f469fa7	0.7758736
198	0x3da0c99b	0.07850953
199	0x3e31e96b	0.17374198
200	0xbc37c6b4	-0.011216808
201	0xbe5262a2	-0.20545438
202	0xbe15e11a	-0.1463665
203	0x3d6ddd32	0.058072276
204	0x3e9e8fb5	0.30969015
205	0x3ee68464	0.4502288
206	0xbd115247	-0.035478856
207	0xbe7098e9	-0.2349583
208	0xbcc7c0c1	-0.024383904
209	0x3d3693a0	0.04457438
210	0x3d51e595	0.051244337
211	0xbd3199a1	-0.043359403
212	0xbe930061	-0.28711227
213	0xbe291762	-0.16512826
214	0xbe6d2b25	-0.2316099
215	0x3e78540a	0.24250808
216	0xbe5ba8f1	-0.21451165
217	0xbef13eef	-0.47118327
218	0xbe6b0a3e	-0.22953126
219	0xbd9bc96f	-0.0760678
220	0xbd5be2b2	-0.05368299
221	0xbe89ff2a	-0.26952487
222	0x3dfb6ecd	0.12276993
223	0x3dcb1bd6	0.09917419
224	0xbe85279a	-0.26006776
225	0x3dbbdbad	0.09172759
226	0xbe3fbdac	-0.18724698
227	0x3d6f0f5e	0.058364265
228	0xbe93f684	-0.28899014
229	0xbceb4d60	-0.028723419
230	0xbc4e3b13	-0.012587327
231	0x3da2abe1	0.079429395
232	0x3d96dbfe	0.07366179
233	0xbce55ff1	-0.02799985
234	0x3bfb3262	0.007665918
235	0x3e262aa4	0.16227204
236	0x3caef474	0.021356799
237	0x3bdef406	0.006803992
238	0x3e8b466b	0.27202162
239	0x3d14371a	0.03618536
240	0x3ee1a306	0.4406969
241	0x3e9a7b36	0.30172127
242	0x3f4a26a7	0.7896523
243	0x3e61def6	0.22057709
244	0x3e038dc5	0.1284705
245	0x3d116886	0.035500072
246	0x3dbc910e	0.092073545
247	0x3e85b7bd	0.26116744
248	0xbdd0458e	-0.101695165
249	0xbe87e35a	-0.26540643
250	0x3eb40b12	0.35164696
251	0x3cec1d7e	0.028822657
252	0x3e29b3d4	0.16572505
253	0x3e3abe52	0.18236664
254	0xbe39221f	-0.18079422
255	0xbe3ccc0f	-0.18437217

rnn.bias_ih_l2 f4 [72]
0	0x3e4b3a43	0.19846444
1	0x3e1be332	0.15223387
2	0x3cc2a309	0.023759382
3	0xbb6e2551	-0.003633816
4	0x3eb07ee8	0.34471822
5	0xbe6d4d96	-0.23174128
6	0xbd36620c	-0.0445271
7	0x3e3b7381	0.1830578
8	0x3d4919e3	0.049096953
9	0xbe5ef9b7	-0.21774946
10	0xbd8cffed	-0.068847515
11	0x3d6b8f2b	0.057509582
12	0x3d379794	0.04482229
13	0xbde8fcfa	-0.113763765
14	0x3d82cf29	0.06387169
15	0xbe974717	-0.29546425
16	0xbe50959c	-0.20369571
17	0x3de21e14	0.11040893
18	0x3dcf03ae	0.10108124
19	0xbe03f2c2	-0.12885574
20	0x3e43a538	0.19105995
21	0x3e36b418	0.17842138
22	0x3eb068db	0.34454998
23	0x3c9c377e	0.01906943
24	0xbf4e178a	-0.8050467
25	0xbf29608b	-0.6616294
26	0xbf083f38	-0.53221464
27	0xbfc44080	-1.5332184
28	0x3c9809e4	0.018559404
29	0xbf7ec249	-0.99515206
30	0xbf0bbee0	-0.5458813
31	0xbf0fd484	-0.5618365
32	0x3e3fa9d1	0.18717124
33	0xbf076b3f	-0.5289802
34	0xbed19dec	-0.40940797
35	0xbf8c0c55	-1.0941263
36	0xbf06891d	-0.5255297
37	0xbea0092c	-0.31256998
38	0xbe9990e3	-0.29993352
39	0xbeb4a2ef	-0.35280558
40	0xbe85b494	-0.26114333
41	0xbea86b3e	-0.3289432
42	0xbe884268	-0.26613164
43	0xbf1ddfba	-0.61669505
44	0xbeaf4d80	-0.34238815
45	0x3f47c283	0.78031176
46	0xbea0e8ef	-0.31427714
47	0xbeb5b642	-0.35490614
48	0x3e10cb8f	0.14140151
49	0x3de359c6	0.11101107
50	0x3e79de90	0.24401307
51	0x3e56bca5	0.209704
52	0x3e52ad18	0.20573843
53	0x3e2d3796	0.16915736
54	0x3b4da115	0.003137653
55	0x3e331fc0	0.1749258
56	0x3d45b561	0.04826868
57	0xbd7fc69f	-0.06244528
58	0x3c63b166	0.013897276
59	0xbe16f22e	-0.14740822
60	0x3ce26a06	0.027638447
61	0x3e08f2a2	0.13373807
62	0xbeaaa012	-0.3332525
63	0xbe8e25f0	-0.2776332
64	0x3dd8cb16	0.105856106
65	0xbcdde09b	-0.02708464
66	0x3e891399	0.26772764
67	0xbb56f3ab	-0.0032799046
68	0xbe50686e	-0.20352337
69	0xbe2a1cbf	-0.16612528
70	0xbe9a7b58	-0.3017223
71	0x3e81457c	0.25248325

rnn.bias_hh_l2 f4 [72]
0	0x3e6c20f7	0.2305945
1	0x3e2b275c	0.16714233
2	0xbe0324e4	-0.12807041
3	0x3e3eb8d7	0.18625198
4	0x3e2c7596	0.1684173
5	0x3d3c530f	0.04597765
6	0xbb1f9699	-0.0024351238
7	0x3cb90d96	0.022589486
8	0xbc1c2043	-0.009529176
9	0xbe8a717a	-0.270397
10	0x3e80f71d	0.25188532
11	0x3dce02be	0.10059117
12	0xbde0b2cf	-0.10971605
13	0xbe2efcb7	-0.1708859
14	0x3db65ccd	0.08904419
15	0xbe48d33f	-0.19611834
16	0xbe12dfbe	-0.14343163
17	0x3d120668	0.03565064
18	0xbc1bda77	-0.009512535
19	0x3e246d47	0.16057311
20	0xbe1339e4	-0.14377552
21	0x3e8fd5b0	0.28092718
22	0x3e69beaf	0.22826646
23	0x3ab5dd0f	0.0013875085
24	0xbef14f16	-0.4713065
25	0xbef7dc3b	-0.4841021
26	0xbf311873	-0.6917793
27	0xbfe3927a	-1.7779076
28	0x3db33409	0.08750159
29	0xbf8082a8	-1.0039873
30	0xbee4a9b1	-0.44660714
31	0xbed21f30	-0.4103942
32	0x3d00d260	0.03145063
33	0xbf09fc8e	-0.5390099
34	0xbe6780d0	-0.22607732
35	0xbf9013c7	-1.1256036
36	0xbec954eb	-0.393226
37	0xbe56cadb	-0.2097582
38	0xbe7fc02f	-0.24975656
39	0xbef5ab86	-0.47982424
40	0xbef09015	-0.46984926
41	0xbeea53f2	-0.4576717
42	0xbed0636e	-0.4070086
43	0xbf591203	-0.8479311
44	0xbe82e2e1	-0.2556372
45	0x3f26dc31	0.65179735
46	0xbf1ae953	-0.60512275
47	0xbe9ed048	-0.3101828
48	0x3ec8f8f7	0.39252445
49	0xbd3e4b43	-0.046458494
50	0xbe0e9717	-0.13924824
51	0x3e876134	0.26441348
52	0x3e18d15a	0.14923611
53	0xbba7630b	-0.0051082424
54	0x3bdb789c	0.0066977274
55	0x3e8a16c2	0.26970488
56	0x3e287c6a	0.1645371
57	0xbe0597a5	-0.13046129
58	0x3e844976	0.25837296
59	0x3e3ebce0	0.18626738
60	0x3d8b8d54	0.068140656
61	0x3e8c08b6	0.27350396
62	0xbe440eac	-0.19146222
63	0x3f904671	1.1271497
64	0x3e1d7498	0.15376508
65	0x3de34182	0.11096479
66	0x3e2fe8cb	0.17178647
67	0xbea2e472	-0.31814915
68	0xbb802dfb	-0.0039117313
69	0xbe795688	-0.24349415
70	0xbe979eed	-0.29613438
71	0x3d367330	0.044543445
